model/model.pth (torch, 16787 bytes, 4 tensors)

linear1.weight f4 [256, 11]
-0.28707308 0.020054828 0.22113921 -0.10354405 -0.29632136 -0.1603481 0.011278757 -0.23039286
0.23927899 -0.14350493 -0.14447491 0.1175689 0.19027103 -0.014957496 -0.083724745 0.06755001
-0.24936268 -0.05382233 0.23373482 0.0043944907 0.041201215 -0.33304 -0.18840571 -0.23965894
0.03505183 0.0047696284 0.04579582 0.0783293 -0.06243022 -0.1242844 0.034704007 0.06869246
-0.2216405 -0.009582728 0.030254018 0.19141355 -0.25290772 -0.032092866 0.08824577 -0.25994545
0.10865303 0.2343221 -0.35553566 0.038114525 -0.1315013 0.08313105 -0.1268388 -0.040245414
0.1538399 -0.103449725 0.031861622 0.008368198 -0.24222024 -0.0180913 0.03944311 0.2498798
0.14820415 -0.2070198 0.23650922 -0.21081302 -0.3067494 0.10940563 0.027206995 0.17013445
0.14300767 -0.27540076 0.06584905 0.1675988 0.18591984 0.022203214 0.13288267 0.036414333
0.14091991 -0.19078708 -0.00785977 -0.0668362 -0.022098709 -0.027221082 0.014870224 -0.2657614
-0.26653275 -0.1152354 -0.22025087 0.12001974 0.16589683 0.23778813 0.1283988 0.26419687
0.1459926 0.043825936 -0.019902196 -0.0412408 -0.21026443 0.105794474 -0.24621047 -0.11125411
0.005521575 0.06610385 0.038329784 -0.21165416 -0.22000965 0.08596603 0.23808445 -0.005340398
-0.10275865 0.025136987 -0.026565468 0.15111238 -0.10490212 0.07685522 0.0105800945 0.084481254
-0.055150446 0.2358889 0.05014638 0.18770942 0.30424875 -0.12030559 -0.25305256 0.039934862
0.012401604 -0.1606969 -0.12692396 0.003949072 -0.2353908 0.15214387 0.0023214817 0.033545732
-0.20199585 -0.13369352 0.10588175 -0.12316382 -0.29662648 -0.12368323 -0.24190277 -0.14241461
0.22738117 -0.002422154 0.061175197 0.21112674 -0.08976558 0.27760494 0.06806895 -0.12585084
-0.059122466 0.17034215 0.17846097 -0.13204391 -0.014892445 0.13421254 0.0067911604 -0.07836196
0.17197657 -0.098637186 -0.076091506 0.1893266 -0.012626842 0.21970324 0.22797912 0.23409866
-0.10003514 -0.24836272 0.2216849 0.0025473237 -0.25583366 0.19214606 0.011551101 -0.091170415
-0.015185427 -0.16202861 0.15744175 0.23795295 0.039134208 -0.2538425 -0.16846445 0.029021138
0.1635129 -0.11511198 0.25192735 0.1401592 -0.06584059 0.079412594 0.12774588 0.1286558
-0.054659605 0.07757875 0.2649096 -0.2752771 0.23387104 0.085976034 0.25002217 0.23603538
-0.2734677 -0.016443476 -0.23605905 -0.2309157 -0.15562202 -0.15850885 0.1821578 -0.24882299
0.2106933 -0.10773075 0.17826223 -0.104624964 0.20873965 0.09236371 0.15871665 -0.22696948
-0.100032195 -0.21108365 0.13181666 -0.08830508 0.13606133 -0.21741699 0.06365855 -0.17400761
-0.16405004 -0.013569971 0.2242947 0.22483978 0.23322882 -0.288666 -0.18776032 0.17320041
-0.08840977 -0.07397258 0.16810265 0.080098525 -0.23630106 -0.024402743 0.14244436 0.21398552
-0.096179485 -0.12766902 -0.21176149 -0.20257843 -0.121933445 -0.039906148 0.12810747 0.0005000963
0.14770271 0.123965144 -0.16584626 -0.15268734 -0.13965616 -0.16764808 -0.06608288 0.29961717
0.19332236 -0.081128344 0.038535893 0.27707306 0.021446357 -0.1402157 0.063404 0.0888315
00000000: 3efb 92be 064a a43c 5172 623e e70e d4bd
00000010: 6fb7 97be 4b32 24be 89ca 383c 1bec 6bbe
00000020: 8d05 753e f5f2 12be 3bf1 13be f7c7 f03d
00000030: 69d6 423e 4910 75bc e177 abbd a957 8a3d
00000040: ee58 7fbe ce74 5cbd 2e58 6f3e a9ff 8f3b
00000050: 9bc2 283d 3884 aabe 6ded 40be 2769 75be
00000060: 8292 0f3d 8b4a 9c3b 6694 3b3d 1d6b a03d
00000070: d5b6 7fbd d288 febd ca25 0e3d a2ae 8c3d
00000080: baf5 62be e000 1dbc 46d7 f73c ea01 443e
00000090: 1f7d 81be cf73 03bd 33ba b43d 9217 85be
000000a0: 7b85 de3d 22f2 6f3e c508 b6be fa1d 1c3d
000000b0: 47a8 06be 9d40 aa3d 08e2 01be 60d8 24bd
000000c0: 3588 1d3e 73dd d3bd 5581 023d c41a 093c
000000d0: 9508 78be 3534 94bc 198f 213d 7ee0 7f3e
000000e0: d4c2 173e 00fd 53be 792f 723e 5edf 57be
000000f0: 420e 9dbe 0f10 e03d 34e1 de3c ba37 2e3e
00000100: 9a70 123e 5401 8dbe dedb 863d 059f 2b3e
00000110: c561 3e3e 84e3 b53c 6512 083e 3227 153d
00000120: 4f4d 103e b05d 43be 44c6 00bc 6be1 88bd
00000130: 5a08 b5bc bffe debc 3da2 733c e111 88be
00000140: fb76 88be 8a00 ecbd 7289 61be e9cc f53d
00000150: dce0 293e bb7e 733e fa7a 033e d044 873e
00000160: 167f 153e d382 333d ee09 a3bc 1dec 28bd
00000170: 8f4f 57be c6aa d83d 991e 7cbe 32d9 e3bd
00000180: 54ee b43b 7561 873d b1ff 1c3d debb 58be
00000190: 364a 61be f50e b03d 69cc 733e 81fe aebb
000001a0: 2173 d2bd 15ec cd3c d39f d9bc 34bd 1a3e
000001b0: ecd6 d6bd 4566 9d3d 2258 2d3c 8204 ad3d
000001c0: 6fe5 61bd dc8c 713e 4a66 4d3d e636 403e
000001d0: 7ec6 9b3e c762 f6bd 1b90 81be bd92 233d
000001e0: 1930 4b3c ba8d 24be 5bf8 01be 3867 813b
000001f0: 490a 71be 9acb 1b3e 0024 183b 4067 093d
00000200: 00d8 4ebe f4e6 08be 88d8 d83d 503d fcbd
00000210: 6ddf 97be a24d fdbd 5cb5 77be 23d5 11be
00000220: 9cd6 683e 00bd 1ebb d892 7a3d 9c31 583e
00000230: 04d7 b7bd 3c22 8e3e bc67 8b3d 0bdf 00be
00000240: 662a 72bd 2c6e 2e3e 79be 363e 8536 07be
00000250: 71ff 73bc 036f 093e 6288 de3b 3c7c a0bd
00000260: a01a 303e 4b02 cabd ddd5 9bbd d5de 413e
00000270: d0e0 4ebc e3f9 603e 5c73 693e 8fb7 6f3e
00000280: 39df ccbd cc52 7ebe 5e01 633e 00f1 263b
00000290: a1fc 82be f0c1 443e d440 3d3c 8eb7 babd
000002a0: 4ccc 78bc d4ea 25be 6938 213e f0a9 733e
000002b0: 314b 203d a5f7 81be f281 2cbe bdbd ed3c
000002c0: ed6f 273e d4bf ebbd 9ffc 803e e585 0f3e
000002d0: 6ed7 86bd 12a3 a23d d1cf 023e 59be 033e
000002e0: c0e2 5fbd 9ce1 9e3d 3ba2 873e 1ff1 8cbe
000002f0: e47b 6f3e 3414 b03d e802 803e 42b3 713e
00000300: f503 8cbe 78b4 86bc 77b9 71be 2a75 6cbe
00000310: 615b 1fbe 2550 22be 9387 3a3e 74cb 7ebe
00000320: fcbf 573e f1a1 dcbd 608a 363e 9d45 d6bd
00000330: d9bf 553e 2f29 bd3d 9e86 223e b06a 68be
00000340: aedd ccbd 5026 58be f2fa 063e 4bd9 b4bd
00000350: a953 0b3e 8fa2 5ebe 6a5f 823d 0d2f 32be
00000360: bcfc 27be 9554 5ebc 83ad 653e 663c 663e
00000370: 89d3 6e3e 08cc 93be 3e44 40be 735b 313e
00000380: 2e10 b5bd f07e 97bd 1a23 2c3e b20a a43d
00000390: e8f8 71be 43e8 c7bc efdc 113e 051f 5b3e
000003a0: c0f9 c4bd abbb 02be 01d8 58be b870 4fbe
000003b0: 3eb8 f9bd a174 23bd 9b2e 033e e518 033a
000003c0: 613f 173e 70e1 fd3d 9ad3 29be 125a 1cbe
000003d0: 0602 0fbe f0ab 2bbe 7656 87bd 6c67 993e
000003e0: 4cf6 453e 9e26 a6bd d0d7 1d3d 85dc 8d3e
000003f0: 45b0 af3c b494 0fbe f5d9 813d 4aed b53d

linear1.bias f4 [256]
-0.12351997 -0.294588 0.1673737 -0.093545966 0.2536126 0.2303088 -0.2520065 -0.27497357
0.022697017 0.20158896 -0.057009306 0.074015126 -0.2012676 -0.1864688 -0.25986472 -0.022355592
-0.31334057 0.23687792 -0.3420015 0.012359182 0.21566413 0.2005428 0.07819368 0.21708451
0.15806769 0.16246256 0.08904788 0.2953539 0.080758184 0.049458895 -0.041475635 -0.2691501
0.103680424 -0.2024988 -0.24456882 -0.05348589 -0.064806886 0.07764267 0.22777131 -0.13639168
0.061401654 -0.12651914 -0.24006099 -0.0017274625 -0.22510439 -0.2700463 -0.2368285 0.27346286
0.114191234 -0.16772842 0.09936257 -0.061647344 -0.21096694 -0.117586866 0.17292635 0.035494417
0.13846068 -0.042805884 0.22457229 -0.24692988 -0.11256035 0.13828303 -0.050072283 0.2118921
0.32106972 0.01365017 0.15809734 -0.0057840915 -0.0044564074 -0.26082253 0.017671883 0.11486241
0.3120442 0.23639725 -0.2440607 0.26329508 0.21782756 0.14536817 -0.08631442 -0.2287025
0.21441682 -0.29694858 -0.020356357 -0.2301675 0.21091004 -0.030716566 0.025380403 -0.04724265
-0.0497809 -0.08957748 -0.2038871 0.0463289 0.12312585 0.008499393 -0.25382203 -0.18241645
-0.09181067 -0.31285274 0.24590255 -0.22130257 -0.024758989 -0.25041032 -0.036404554 -0.14363724
-0.09109944 0.21399274 -0.04174818 -0.26466545 -0.05497005 0.022553785 0.17783044 0.23977831
0.18460532 0.1993577 0.28585213 0.010401541 0.016925253 -0.025923122 0.011578995 0.23880775
0.22392622 -0.31957507 0.09899381 0.23533045 0.1435807 0.16341542 -0.2951682 0.06264785
-0.1112677 0.12176091 0.08587709 0.106742345 0.050378416 -0.23330513 -0.054656696 -0.21462175
0.109820664 -0.1715019 0.03204534 0.14212011 -0.13635579 0.17465961 0.25831497 -0.23215656
0.20181465 -0.27286538 0.030187726 -0.05751905 -0.139464 0.16039018 -0.07102668 -0.009021568
0.24316856 -0.04222426 -0.24676667 0.2274271 0.051423196 -0.25230125 -0.13693504 -0.19780758
0.018462671 -0.051658653 -0.01890992 2.0060928e-05 -0.20985638 -0.2059154 0.2659301 0.0025872246
0.06639178 0.13250943 0.24548815 -0.18354963 0.07417054 0.17387712 0.034442313 0.07210484
0.060540885 -0.22796184 0.03358437 -0.14621182 -0.2075494 -0.25562638 -0.12541983 -0.045903444
-0.2072502 0.2798897 -0.14174879 -0.11829009 0.22991313 -0.15378371 -0.20451954 0.15097511
0.022226637 -0.02587789 -0.21943818 -0.2719509 -0.26660505 -0.08910799 0.124674916 0.13762224
-0.061570454 0.18826856 0.24106444 -0.1940688 0.07977157 0.22738086 0.1913499 -0.252541
-0.23148003 0.035450798 0.064802796 -0.154822 -0.15282987 -0.28599432 -0.26001427 0.26817858
-0.14179078 -0.17830786 0.24697053 -0.08114142 -0.18329939 0.19657283 0.11018731 -0.18874942
0.068021655 0.30925635 0.26824138 -0.22644521 -0.100388415 0.17010845 -0.13485374 0.13413103
-0.17402138 -0.23974885 0.10606814 -0.19285835 -0.03900657 0.0061326413 0.091725945 -0.14704396
-0.26583397 0.0776726 0.26719993 -0.27284598 -0.16783504 0.0019145951 0.21538816 -0.12896432
0.21567488 0.1269286 -0.27923366 -0.21379286 -0.04742946 0.0023757317 -0.00042708032 -0.056836516
00000000: 0af8 fcbd 3dd4 96be 0364 2b3e 0795 bfbd
00000010: 83d9 813e 12d6 6b3e ff06 81be 56c9 8cbe
00000020: 18ef b93c 566d 4e3e 9782 69bd 3e95 973d
00000030: 1819 4ebe adf1 3ebe fd0c 85be 1323 b7bc
00000040: 2d6e a0be 2090 723e d21a afbe 2b7e 4a3c
00000050: 0fd7 5c3e 175b 4d3e 0224 a03d 674b 5e3e
00000060: 7fdc 213e 965c 263e bc5e b63d a038 973e
00000070: 8c64 a53d 6995 4a3d 5be2 29bd 0bce 89be
00000080: 6756 d43d d85b 4fbe 4070 7abe 0514 5bbd
00000090: 79b9 84bd 1f03 9f3d e23c 693e 43aa 0bbe
000000a0: 4d80 7b3d 3c8e 01be 8cd2 75be 066c e2ba
000000b0: c481 66be 8243 8abe 2c83 72be 5303 8c3e
000000c0: 18dd e93d 00c1 2bbe 9a7e cb3d ed81 7cbd
000000d0: b807 58be 62d1 f0bd 9b13 313e 9862 113d
000000e0: a3c8 0d3e 3955 2fbd 47f6 653e 30db 7cbe
000000f0: 0a86 e6bd 119a 0d3e 9818 4dbd 3efa 583e
00000100: 4063 a43e f6a4 5f3c 45e4 213e 7a88 bdbb
00000110: 0e07 92bb 888a 85be a0c4 903c fc3c eb3d
00000120: 42c4 9f3e 1f12 723e 0ceb 79be 9dce 863e
00000130: 300e 5f3e 65db 143e 9dc5 b0bd fd30 6abe
00000140: 1590 5b3e a509 98be 60c2 a6bc 07b1 6bbe
00000150: cdf8 573e 4fa1 fbbc 90ea cf3c 8281 41bd
00000160: 0fe7 4bbd 6674 b7bd c8c7 50be 5fc3 3d3d
00000170: 6829 fc3d 0a41 0b3c f6f4 81be 61cb 3abe
00000180: 3c07 bcbd 3c2e a0be e1cd 7b3e 249d 62be
00000190: 5dd3 cabc c835 80be f11c 15bd a415 13be
000001a0: 5892 babd ea20 5b3e 2400 2bbd 3b82 87be
000001b0: 4628 61bd b7c2 b83c 2f19 363e 7288 753e
000001c0: 2d09 3d3e 6d24 4c3e 365b 923e 3a6b 2a3c
000001d0: d4a6 8a3c ba5c d4bc d3b5 3d3c 058a 743e
000001e0: ea4c 653e 589f a3be 44bd ca3d 77fa 703e
000001f0: d206 133e 5f56 273e 4920 97be 844d 803d
00000200: 52e0 e3bd c95d f93d 54e0 af3d bb9b da3d
00000210: 9959 4e3d 8ae7 6ebe b3df 5fbd cec5 5bbe
00000220: a8e9 e03d 329e 2fbe f941 033d ef87 113e
00000230: daa0 0bbe f8d9 323e dc41 843e 73ba 6dbe
00000240: 80a8 4e3e 03b5 8bbe 404c f73c 1899 6bbd
00000250: a7cf 0ebe 533d 243e 7076 91bd 33cf 13bc
00000260: 2e01 793e 58f3 2cbd 67b0 7cbe a6e2 683e
00000270: 21a1 523d a12d 81be b338 0cbe 128e 4abe
00000280: 073f 973c 0698 53bd fae8 9abc 8448 a837
00000290: 97e4 56be 7ddb 52be fd27 883e 6d8e 293b
000002a0: 6af8 873d 8db0 073e 3f61 7b3e 6ff4 3bbe
000002b0: b9e6 973d d80c 323e 6213 0d3d b4ab 933d
000002c0: b8f9 773d d46e 69be c48f 093d 8db8 15be
000002d0: d487 54be 76e1 82be 0e6e 00be 4005 3cbd
000002e0: 6539 54be b44d 8f3e 9826 11be 1342 f2bd
000002f0: 596e 6b3e 7a79 1dbe 926d 51be 3899 1a3e
00000300: a314 b63c defd d3bc 67b4 60be 263d 8bbe
00000310: 7580 88be 407e b6bd 9055 ff3d d8ec 0c3e
00000320: 4d31 7cbd 79c9 403e 99d9 763e f9b9 46be
00000330: 475f a33d 87d6 683e 3af1 433e 0e4d 81be
00000340: 1a09 6dbe db34 113d 54b7 843d a989 1ebe
00000350: 6f7f 1cbe d96d 92be 9720 85be b44e 893e
00000360: 9a31 11be 5696 36be d8e5 7c3e 792d a6bd
00000370: d6b2 3bbe 634a 493e e2a9 e13d 8747 41be
00000380: f04e 8b3d d956 9e3e ef56 893e 41e1 67be
00000390: 7198 cdbd e930 2e3e 1917 0abe a559 093e
000003a0: a932 32be b980 75be 413a d93d a97c 45be
000003b0: 5ac5 1fbd 53f4 c83b d0da bb3d b192 16be
000003c0: 641b 88be d012 9f3d 6ece 883e 78b2 8bbe
000003d0: f3dc 2bbe 27f3 fa3a b78e 5c3e 390f 04be
000003e0: e0d9 5c3e 92f9 013e b7f7 8ebe 84ec 5abe
000003f0: 6545 42bd 2ab2 1b3b c0e9 dfb9 68cd 68bd

linear2.weight f4 [3, 256]
-0.049519815 0.07316161 0.043974016 -0.027841333 -0.020190377 0.041726056 -0.013528572 0.055255387
0.01313558 0.0115024615 0.051122483 -0.0061021573 0.039161384 0.0017019846 0.017641028 0.048242144
0.04548827 -0.06233348 -0.010539574 -0.010838927 -0.004321085 -0.024778832 -0.020965688 0.0032753474
-0.02197349 -0.028973723 -0.005180479 0.03291318 -0.012061684 0.10953873 -0.043613866 -0.029257625
-0.016814992 0.023991533 0.058562092 0.07074174 -0.028689664 0.09101606 -0.043270912 -0.012156957
0.027718248 -0.0025998852 -0.033790383 0.042204726 -0.02201081 0.053997695 -0.044121224 0.0058822036
-0.002421454 -0.04340726 -0.040200032 0.0347516 0.021414438 -0.018470459 0.03892558 0.00056442036
-0.015822673 0.018257108 0.020326925 0.0017684028 0.044536922 -0.046337657 0.038866702 0.017448556
-0.034702227 0.051308345 0.004173034 0.009050325 -0.022834437 0.038652036 0.0059880386 -0.0068639037
-0.014808103 0.02336912 -0.0035808731 0.027216533 0.024449233 0.053517822 0.00390174 -0.012197981
-0.03760878 0.053322002 0.049075946 0.004020199 -0.011980929 0.007266811 0.04279096 -0.04216582
0.002857336 -0.018084353 0.043567028 0.0594849 -0.014185665 -0.014598556 -0.043155856 -0.010426066
0.005588956 -0.031680983 0.063916795 0.038339972 -0.033019826 0.007441341 -0.008727012 0.030500619
0.015070404 -0.006493857 0.0070045674 -0.0326722 0.037205584 0.02072157 0.003045238 -0.043102663
-0.0044411737 -0.0023351866 -0.0051528513 -0.046996836 0.008981487 -0.048079174 0.0003922074 -0.020929303
0.0580907 -0.0051470953 -0.010526062 -0.011238282 0.041247554 -0.0104398895 -0.033573356 0.0005690027
0.00053260475 -0.04321417 -0.049815413 -0.059884954 -0.017936142 0.06718677 -0.03126334 0.0791698
0.037862025 -0.023880417 0.05762814 0.046545725 0.014024738 0.020024918 0.09298004 -0.00784646
0.025706742 -0.037243977 -0.033902694 0.024529293 0.0061264685 -0.04450508 0.038250815 -0.043854114
0.060998295 -0.04107834 -0.011410929 -9.344268e-05 0.060821887 -0.028036835 0.051423922 0.06038581
-0.028154101 0.0014164225 -0.006615359 -0.0096520865 -0.04037751 0.010957623 0.058974683 0.027871007
-0.025863638 -0.00372487 0.031257987 0.019463526 -0.0527959 -0.027815418 0.026510198 0.019498885
-0.033721186 -0.050552055 -0.02988904 -0.031285007 -0.0033525538 -0.06035815 -0.012286892 0.021672845
-0.042090364 0.031905666 0.05815497 0.040954065 0.04682881 0.035879504 0.041260947 0.034123547
0.014322506 0.058344766 -0.03933994 0.07097851 -0.035997316 -0.052701652 0.03514981 -0.003543809
0.0064641153 0.049611475 -0.054968562 -0.05363705 0.021260124 0.048937213 0.0055231345 -0.03468558
-0.027390346 -0.032877132 0.058982957 0.010774232 -0.020601954 -0.029493064 -0.022409432 0.03816827
-0.02783667 0.10028056 0.03203513 0.003064636 0.06240665 0.010319244 0.038631603 0.009067479
-0.025932519 -0.0067894044 0.045200575 -0.019752227 -0.024030365 -0.024362855 -0.056016207 0.039538104
-0.0078274645 -0.0023435801 0.084324144 0.02817247 0.0028365275 0.05095345 0.027762035 0.056405418
-0.031604726 -0.04263358 -0.014745176 -0.022912085 0.009812196 -0.08129406 -0.008350755 0.07246784
0.07663093 0.046443686 -0.03440357 0.054858472 0.010599017 -0.012277351 0.063718975 -0.0044080466
00000000: 4ad5 4abd c1d5 953d 191e 343d 8213 e4bc
00000010: 4a66 a5bc f1e8 2a3d f2a6 5dbc 7953 623d
00000020: 9e36 573c d274 3c3c cf65 513d 9bf4 c7bb
00000030: b067 203d 2015 df3a eb83 903c 8e99 453d
00000040: e951 3a3d 6451 7fbd 2dae 2cbc c195 31bc
00000050: e397 8dbb fafc cabc 3cc0 abbc 36a7 563b
00000060: c001 b4bc 4d5a edbc 02c1 a9bb f8cf 063d
00000070: 5f9e 45bc d755 e03d 74a4 32bd b0ad efbc
00000080: 98bf 89bc e489 c43c cede 6f3d 0ce1 903d
00000090: 9606 ebbc a166 ba3d d73c 31bd f92d 47bc
000000a0: 6111 e33c d662 2abb c967 0abd ddde 2c3d
000000b0: 0450 b4bc b02c 5d3d 75b8 34bd 80bf c03b
000000c0: 42b1 1ebb d0cb 31bd caa8 24bd b257 0e3d
000000d0: 556d af3c 5c4f 97bc 6e70 1f3d 9cf5 133a
000000e0: 8d9e 81bc ee8f 953c a784 a63c c0c9 e73a
000000f0: 596c 363d 8ecc 3dbd b132 1f3d 46f0 8e3c
00000100: ec23 0ebd b328 523d f2bd 883b d047 143c
00000110: 490f bbbc 9951 1e3d 4f37 c43b 99ea e0bb
00000120: b09d 72bc 9970 bf3c 15ad 6abb 35f5 de3c
00000130: c249 c83c 8135 5b3d 56b4 7f3b 0ada 47bc
00000140: aa0b 1abd 2c68 5a3d dc03 493d e0bb 833b
00000150: a94b 44bc 6e1e ee3b 9345 2f3d 11b6 2cbd
00000160: 2542 3b3b a325 94bc 5773 323d 70a6 733d
00000170: fe6a 68bc c82e 6fbc 32c4 30bd 17d2 2abc
00000180: 9023 b73b ebc3 01bd cfe6 823d 600a 1d3d
00000190: cc3f 07bd 7ed6 f33b befb 0ebc 6fdc f93c
000001a0: dbe9 763c 6cca d4bb 9286 e53b 49d3 05bd
000001b0: e264 183d 48c0 a93c 9e92 473b 6b8c 30bd
000001c0: 4487 91bb ee09 19bb 40d9 a8bb c17f 40bd
000001d0: 1627 133c abee 44bd 30a1 cd39 ee73 abbc
000001e0: 84f0 6d3d f7a8 a8bb 8175 2cbc c520 38bc
000001f0: 32f3 283d 120c 2bbc 3784 09bd 2029 153a
00000200: 809e 0b3a 5701 31bd 3f0b 4cbd ed49 75bd
00000210: d1ee 92bc 3899 893d fd0d 00bd c723 a23d
00000220: 3615 1b3d dda0 c3bc 7c0b 6c3d bba6 3e3d
00000230: 04c8 653c 4c0b a43c 526c be3d 708e 00bc
00000240: f296 d23c 248d 18bd 8ddd 0abd a8f1 c83c
00000250: 8bc0 c83b f54a 36bd e3ac 1c3d 5fa0 33bd
00000260: 59d9 793d c341 28bd e8f4 3abc a8f6 c3b8
00000270: 5f20 793d 81ad e5bc e4a1 523d 1c57 773d
00000280: 6ea3 e6bc 41a7 b93a a7c5 d8bb c923 1ebc
00000290: e362 25bd 9a87 333c 708f 713d bd51 e43c
000002a0: fbdf d3bc f31c 74bb 6008 003d f971 9f3c
000002b0: 8340 58bd 29dd e3bc ea2b d93c 20bc 9f3c
000002c0: 3a1f 0abd ac0f 4fbd dcd9 f4bc b524 00bd
000002d0: 85b6 5bbb 1c3a 77bd f64e 49bc 408b b13c
000002e0: f266 2cbd 84af 023d e833 6e3d 73bf 273d
000002f0: 91cf 3f3d 63f6 123d 3d01 293d 22c5 0b3d
00000300: f2a8 6a3c ecfa 6e3d eb22 21bd 2e5d 913d
00000310: ec71 13bd b0dd 57bd 3ff9 0f3d 403f 68bb
00000320: eed0 d33b 6735 4b3d b726 61bd 86b2 5bbd
00000330: b629 ae3c 6372 483d 69fb b43b 7712 0ebd
00000340: b861 e0bc 2caa 06bd 1d98 713d 6886 303c
00000350: 6ec5 a8bc 709b f1bc fc93 b7bc 5556 1c3d
00000360: ba09 e4bc e55f cd3d 4537 033d 0fd8 483b
00000370: 1e9e 7f3d 0c12 293c 2c3c 1e3d c38f 143c
00000380: 6f70 d4bc a779 debb 3d24 393d 6ccf a1bc
00000390: 54db c4bc 9c94 c7bc 4071 65bd b5f2 213d
000003a0: c43e 00bc c096 19bb 23b2 ac3d f4c9 e63c
000003b0: 09e5 393b 91b4 503d 356d e33c 5e09 673d
000003c0: f573 01bd 8ca0 2ebd c095 71bc 20b2 bbbc
000003d0: 55c3 203c 807d a6bd 9bd1 08bc 056a 943d
000003e0: adf0 9c3d bc3b 3e3d c2ea 0cbd 47b3 603d
000003f0: 80a7 2d3c f126 49bc 187f 823d 6071 90bb

linear2.bias f4 [3]
-0.05111332 -0.0029097954 0.041957192
00000000: 335c 51bd 44b2 3ebb 4edb 2b3d
