model/model.pth (torch, 16787 bytes, 4 tensors)

linear1.weight f4 [256, 11]
-0.10940449 -0.245461 -0.2533848 -0.027354322 -0.06580903 -0.022412717 -0.044599056 -0.18802655
-0.29292306 0.23567104 0.19021998 -0.12254596 -0.26371956 -0.017241865 0.054466516 0.1586331
-0.30111575 0.055865426 -0.05886899 0.0024994418 -0.11316128 -0.121361926 0.5112694 0.038401276
-0.5614097 -0.042589493 -0.18843263 -0.05351234 -0.16563621 -0.23302005 -0.45243368 -0.2645947
-0.065086484 -0.8474785 0.43108636 0.23335046 -1.1577624 -0.9498358 -0.062420174 -0.06734561
-0.32320532 -1.1197822 -0.14281787 -0.22898266 -0.29749423 0.3172553 -0.053549312 -0.08195278
0.0020933384 -0.53270966 -0.04291078 -0.04481846 0.04033729 -0.08758434 -0.44936654 0.08105624
-0.25367978 0.09588064 0.00901266 0.104693264 -0.084590286 -0.24688676 -0.108141854 -0.19587585
-0.27007484 -0.0318697 -0.5259925 -0.4306309 0.10510724 -0.39915514 -0.4131179 -0.027064094
-0.12323669 -0.30103818 0.06155384 -0.6193062 -0.32632864 1.630408 1.8360984 0.82490194
-0.8211728 -0.9454391 -0.92925423 -0.9548234 -0.74663204 -0.87452364 -0.19480097 -0.42182875
-0.07898799 -0.10758892 0.11839711 -0.055039603 -0.13668807 -0.3862191 -0.19181223 -0.09469036
-0.093250975 -0.119098365 -0.3163736 -0.4253411 0.686921 -0.026357478 -0.29732 -0.9024616
-0.41527453 -0.5743395 -0.6811506 -0.07552423 -0.79642135 -0.07588314 0.1554022 -0.4918293
0.013871117 -0.47675496 -0.3762927 -0.38356602 -0.035227507 0.29532444 -0.52119595 -0.26201364
-0.8292501 -0.06927527 -0.19102834 -0.041536354 -0.11685066 -0.036425896 -0.12945707 0.12117982
-0.04823836 -0.20773447 -0.014965193 0.10453186 0.023130737 -0.3120915 -0.075205065 0.21610297
-0.01345364 -0.20136645 0.18850838 -0.3179893 -0.40501288 0.10886729 -0.21873173 0.30771688
1.7210242 1.5136681 -0.7054122 -0.32301006 -0.6578751 -0.43181053 -0.2752543 -0.5226387
-0.36302522 -0.23290065 -0.015314449 0.36592275 0.078561135 -0.35506094 -0.23618028 -0.40909803
-0.26135975 0.10842065 -0.060051642 -0.13186888 -0.57984966 0.47621927 -0.26883185 -0.22940409
-0.276931 -0.5365295 -0.2664477 -0.46263105 -0.35181564 -0.3619091 -0.12533092 -0.17559601
0.030591268 -0.11737682 -0.18790221 -0.22816019 -0.14428422 -0.18109897 0.074458286 0.0538808
-0.28060037 -0.033386208 -0.07912342 0.52436024 -0.3666514 -1.876259 -0.35548162 0.45090672
-0.63702255 0.6171365 0.69674104 -0.14200284 0.42077044 -0.51688987 -0.2744922 -0.2178484
-0.23015293 0.045425892 -0.10709289 0.063533455 0.09866624 -0.2509244 -0.0721259 -0.13647388
-0.027831955 -0.03330182 -0.2742315 0.027532578 -0.14234771 -0.20666103 -0.034624368 -0.09377779
-0.2641434 -0.30205953 -0.0032528362 0.034852356 0.014924852 -0.01909243 -0.33149818 0.016430752
0.028779607 0.05122602 -0.15964524 -0.01667 -0.11049291 -0.07964148 -0.23864976 -0.27644747
-0.30259693 0.10555551 0.55162525 -0.6749377 0.5290179 -0.17284913 -1.0278189 -1.1733543
-0.43947792 0.9244943 0.00643899 0.016994117 -0.20885305 -0.04289095 0.035079464 0.13405783
-0.20292802 -0.1284978 -0.20419016 0.058192167 -0.12664743 0.19727068 -0.069004275 0.14189367
00000000: 760f e0bd 215a 7bbe a7bb 81be 2c16 e0bc
00000010: e2c6 86bd e09a b7bc 80ad 36bd 088a 40be
00000020: 03fa 95be c053 713e 07c9 423e 60f9 fabd
00000030: 4006 87be d03e 8dbc 4818 5f3d b770 223e
00000040: d82b 9abe 25d3 643d 9c20 71bd adcd 233b
00000050: 1ac1 e7bd 9a8c f8bd 8de2 023f a84a 1d3d
00000060: 8cb8 0fbf 5272 2ebd 7cf4 40be c12f 5bbd
00000070: 8a9c 29be cf9c 6ebe 63a5 e7be f578 87be
00000080: 104c 85bd 5af4 58bf 5ab7 dc3e 6cf3 6e3e
00000090: 8f31 94bf 7028 73bf 4cac 7fbd 7fec 89bd
000000a0: 2b7b a5be 0655 8fbf d93e 12be 6e7a 6abe
000000b0: 2a51 98be 496f a23e 8656 5bbd dcd6 a7bd
000000c0: 6430 093b a95f 08bf 37c3 2fbd 9093 37bd
000000d0: b738 253d 6b5f b3bd 5f13 e6be d000 a63d
000000e0: 51e2 81be 125d c43d d6a9 133c 6c69 d63d
000000f0: ac3d adbd e2cf 7cbe 7a79 ddbd ae93 48be
00000100: 4047 8abe cd89 02bd 72a7 06bf a77b dcbe
00000110: 7742 d73d 105e ccbe 3084 d3be 85b5 ddbc
00000120: 8563 fcbd ad21 9abe e11f 7c3d da8a 1ebf
00000130: 8c14 a7be 36b1 d03f 4605 eb3f c62c 533f
00000140: 6138 52bf 4c08 72bf 9be3 6dbf 4e6f 74bf
00000150: 4723 3fbf c8e0 5fbf e879 47be f0f9 d7be
00000160: 75c4 a1bd 9457 dcbd 2f7a f23d 3571 61bd
00000170: f5f7 0bbe 83be c5be 6d6a 44be 05ed c1bd
00000180: 5efa bebd d8e9 f3bd b8fb a1be 4fc6 d9be
00000190: 0eda 2f3f a3eb d7bc 543a 98be b907 67bf
000001a0: dd9e d4be ea07 13bf e35f 2ebf 73ac 9abd
000001b0: 45e2 4bbf 9f68 9bbd c121 1f3e 0dd1 fbbe
000001c0: ae43 633c 3a19 f4be 70a9 c0be c462 c4be
000001d0: b84a 10bd c434 973e 196d 05bf a726 86be
000001e0: bc49 54bf 31e0 8dbd ef9c 43be 0622 2abd
000001f0: 664f efbd 5233 15bd 6590 04be 202d f83d
00000200: 9695 45bd 58b8 54be 9230 75bc cd14 d63d
00000210: ac7c bd3c 75ca 9fbe 1d05 9abd 194a 5d3e
00000220: a86c 5cbc 0233 4ebe 5708 413e 7ecf a2be
00000230: d95d cfbe d0f5 de3d 36fb 5fbe 118d 9d3e
00000240: 854a dc3f e0bf c13f e595 34bf 9361 a5be
00000250: 816a 28bf 4516 ddbe 22ee 8cbe a6cb 05bf
00000260: 71de b9be 827d 6ebe 74e9 7abc 3a5a bb3e
00000270: a9e4 a03d 8cca b5be 3ed9 71be 4c75 d1be
00000280: f2d0 85be a50b de3d b6f8 75bd a308 07be
00000290: 0771 14bf 03d3 f33e 54a4 89be e8e8 6abe
000002a0: e6c9 8dbe ff59 09bf d56b 88be fadd ecbe
000002b0: 2e21 b4be 264c b9be c056 00be 71cf 33be
000002c0: 8a9a fa3c 4263 f0bd 7069 40be d3a2 69be
000002d0: 3ebf 13be 0272 39be 967d 983d 1db2 5c3d
000002e0: daaa 8fbe fabf 08bd 760b a2bd 793c 063f
000002f0: bbb9 bbbe 4129 f0bf b001 b6be 3fdd e63e
00000300: e913 23bf a8fc 1d3f 9f5d 323f 3169 11be
00000310: 396f d73e e552 04bf 3e8a 8cbe a713 5fbe
00000320: 36ad 6bbe 8010 3a3d 8453 dbbd d41d 823d
00000330: 8711 ca3d 2a79 80be beb6 93bd cfbf 0bbe
00000340: d7ff e3bc 7d67 08bd 1268 8cbe 008c e13c
00000350: 99c3 11be f39e 53be 48d2 0dbd 920e c0bd
00000360: ce3d 87be 8ca7 9abe 892d 55bb 58c1 0e3d
00000370: 5e87 743c ba67 9cbc 21ba a9be c999 863c
00000380: 36c3 eb3c 60d2 513d 0b7a 23be 868f 88bc
00000390: 1b4a e2bd 131b a3bd 9a60 74be 868a 8dbe
000003a0: fced 9abe 7d2d d83d 5037 0d3f b8c8 2cbf
000003b0: b86d 073f 5dff 30be 928f 83bf 7930 96bf
000003c0: 4003 e1be a9ab 6c3f 2afe d23b 3f37 8b3c
000003d0: 93dd 55be 6cae 2fbd 7caf 0f3d 7546 093e
000003e0: 5dcc 4fbe ed94 03be 3a17 51be e95a 6e3d
000003f0: ddaf 01be 5301 4a3e 1d52 8dbd 934c 113e

linear1.bias f4 [256]
-0.2712169 -0.1869696 -0.6503843 -0.7666142 -0.36041346 -0.3320683 -0.4170232 -0.9006193
-0.17930937 -0.68839335 -0.4391027 -0.3499437 -0.38617018 -0.7383513 -0.31686535 -0.21446468
-0.41450417 -0.23723933 -0.18445878 -0.15401424 -0.1547869 -0.64430755 -0.3604678 -0.5611823
-0.20791133 -0.6772453 -0.37975737 0.8432571 -0.30663916 -0.25283134 -0.18030511 -0.42288005
-0.23622355 -0.38135433 -0.35848248 -0.011317412 -0.78532684 -0.5852783 0.5536787 -0.07683064
-0.31380376 -0.3794295 -0.38790333 -0.8453953 1.2996942 -0.11602579 -0.18180479 -0.1888837
1.0697997 -0.21261041 -0.5077341 -0.3675166 -0.39087954 0.20884655 -0.26731646 -0.25446823
-0.37425616 -0.31111258 -0.4475673 -0.41248813 -0.53589046 -0.2059886 -0.49280652 -0.49224934
-0.76311743 -0.14025079 -0.66573393 -0.30163288 -0.3873271 -0.61746687 -0.26696247 1.0675524
-0.41380522 -0.45950493 -0.17275763 -0.16653353 -0.44436067 -0.36652842 -0.16038282 -0.3198154
-0.45967978 -0.2888653 -0.19695045 -0.690301 -0.32984897 -0.2099602 -0.65988904 -0.13516663
-0.2345119 0.1908208 -0.87341803 -0.7133347 -0.40372184 -0.21933989 -0.10402683 -0.3795598
-0.5197639 -0.32043716 -0.35317165 -0.15540603 -0.6090274 -0.68785214 -0.26543868 -0.13654926
-0.45006764 -0.9628321 -0.45902714 -0.7805901 -0.5563508 -0.22862022 -0.70095176 -0.26617756
-0.0565224 -0.575702 -0.1957406 -0.2495137 -0.5738732 -0.47733584 -0.047413222 -0.39007968
-0.29139674 -0.30033776 -0.34773248 -0.41377681 -0.2675747 -0.31098762 -0.4069707 -0.12267926
0.15836287 0.15243733 -0.5456113 -0.17232625 -0.23966046 -0.43028817 0.057605516 -0.1254852
-0.23111542 -0.6972402 -0.13495107 -0.21903683 -0.44008595 -0.28192967 0.7534651 0.015764663
-0.4566281 -0.39648873 -0.26085797 -0.58614576 -0.06252956 0.8456948 -0.32972872 -0.31120548
-0.26534125 -0.35404402 -0.22369012 -0.2868596 1.170581 -0.52616704 -0.1732832 -1.124801
-0.7018754 -0.55017716 -1.0129105 -0.4296044 -0.25922877 -0.5035983 -0.1528614 -0.38145262
-0.30811912 -0.33340287 -0.25359577 -0.32285687 -0.4872678 -0.13481352 -0.30405524 -0.515141
0.058341034 -0.35064963 0.3199234 -0.20468882 -0.8792654 -0.3292395 -0.31780502 -0.2759424
-0.2990738 0.07693089 0.8972414 -0.4543618 -0.4056294 -0.16986217 -0.3485382 -0.71999896
0.05335786 -0.73147666 -0.21736144 -0.56858253 -0.41629407 -0.4670116 0.13574639 -0.16813627
-0.30786154 -0.19211866 -0.5656947 -0.38224113 -0.19267946 -0.09854645 -0.38748252 -0.44426605
-0.30043256 -1.0295757 0.08050881 -0.44512746 -0.33849016 -0.4963123 -0.36506295 -0.3570037
-0.49970567 -0.42636114 0.57760835 -0.5460874 0.4871381 -0.39930692 -0.47293448 -0.48247093
-0.4366387 -0.48665804 -0.35953078 -0.19413552 0.5340643 -0.6527823 0.52173406 -0.5028899
-0.6421256 -0.22783864 -0.26988542 -0.47540122 -0.40914425 0.6782519 -0.5194621 -0.58496624
-0.49233988 -0.23374875 -0.28737843 -0.31290376 0.79019326 -0.89285964 -0.45113972 -0.4098386
-0.3338432 -0.1716739 -0.65445757 -0.06791524 -0.36005428 -0.24700947 -0.597432 -0.25035068
00000000: f1dc 8abe f574 3fbe 967f 26bf d440 44bf
00000010: 1d88 b8be db04 aabe 1184 d5be fd8e 66bf
00000020: e09c 37be 8c3a 30bf 12d2 e0be d22b b3be
00000030: 19b8 c5be 9704 3dbf 2d3c a2be a19c 5bbe
00000040: e439 d4be deee 72be c3e2 3cbe e9b5 1dbe
00000050: 7580 1ebe 57f1 24bf 3c8f b8be a5a9 0fbf
00000060: b5e6 54be f35f 2dbf 8f6f c2be b3df 573f
00000070: cfff 9cbe 1c73 81be e7a1 38be bc83 d8be
00000080: 96e4 71be e040 c3be 048b b7be ab6c 39bc
00000090: 2e0b 49bf ccd4 15bf e3bd 0d3f 6259 9dbd
000000a0: e3aa a0be 9544 c2be 449b c6be d46b 58bf
000000b0: 615c a63f ee9e edbd 092b 3abe bb6a 41be
000000c0: 32ef 883f 8bb6 59be ddfa 01bf 232b bcbe
000000d0: 5d21 c8be dfdb 553e b4dd 88be a949 82be
000000e0: 819e bfbe 264a 9fbe 8b27 e5be a531 d3be
000000f0: 1e30 09bf adee 52be 2351 fcbe 1b08 fcbe
00000100: aa5b 43bf e79d 0fbe 8a6d 2abf a06f 9abe
00000110: bd4f c6be 4f12 1ebf 4eaf 88be 8fa5 883f
00000120: 47de d3be 3b44 ebbe 60e7 30be c487 2abe
00000130: 3e83 e3be 9da9 bbbe 653b 24be d8be a3be
00000140: 265b ebbe 27e6 93be 61ad 49be 91b7 30bf
00000150: f7e1 a8be cfff 56be 7dee 28bf 1f69 0abe
00000160: e323 70be 8766 433e 5398 5fbf 1a9d 36bf
00000170: a1b4 cebe a39a 60be 050c d5bd a955 c2be
00000180: 3f0f 05bf 5710 a4be ead2 b4be c222 1fbe
00000190: 38e9 1bbf 1417 30bf 94e7 87be 92d3 0bbe
000001a0: 446f e6be 2a7c 76bf 9b05 ebbe c1d4 47bf
000001b0: 026d 0ebf 6b1b 6abe 9371 33bf 6d48 88be
000001c0: 0884 67bd 3561 13bf 3970 48be 8580 7fbe
000001d0: 5be9 12bf 5d65 f4be 5e34 42bd 86b8 c7be
000001e0: f431 95be dfc5 99be fe09 b2be 8eda d3be
000001f0: 8dff 88be c539 9fbe 775e d0be 443f fbbd
00000200: e029 223e 8818 1c3e 2fad 0bbf 4b76 30be
00000210: 8d69 75be bb4e dcbe c3f3 6b3d 317f 00be
00000220: 85a9 6cbe 557e 32bf 9d30 0abe 314b 60be
00000230: f252 e1be 1659 90be 17e3 403f e524 813c
00000240: 29cb e9be 9200 cbbe 2d8f 85be a60d 16bf
00000250: 7f0f 80bd 747f 583f 34d2 a8be 5356 9fbe
00000260: cfda 87be 4245 b5be 060f 65be 43df 92be
00000270: 99d5 953f e2b2 06bf 2771 31be 7bf9 8fbf
00000280: 1bae 33bf 69d8 0cbf 0da7 81bf 1cf5 dbbe
00000290: a2b9 84be d1eb 00bf b387 1cbe c24d c3be
000002a0: cac1 9dbe c8b3 aabe 4ed7 81be 7f4d a5be
000002b0: 2a7b f9be 8e0c 0abe 21ad 9bbe 48e0 03bf
000002c0: 02f7 6e3d 5988 b3be 00cd a33e f299 51be
000002d0: 8a17 61bf 1492 a8be 57b7 a2be 5248 8dbe
000002e0: 3320 99be f18d 9d3d 9db1 653f 1ca2 e8be
000002f0: a8ae cfbe 59f0 2dbe 9973 b2be da51 38bf
00000300: c58d 5a3d 0e42 3bbf ff93 5ebe a08e 11bf
00000310: 7f24 d5be 251c efbe 1a01 0b3e ea2b 2cbe
00000320: 07a0 9dbe c1ba 44be 5ed1 10bf 1cb5 c3be
00000330: c44d 45be b9d2 c9bd 1c64 c6be d776 e3be
00000340: 4cd2 99be 23c9 83bf cee1 a43d bfe7 e3be
00000350: 954e adbe a51c febe 88e9 babe 30c9 b6be
00000360: 6cd9 ffbe 024c dabe 24de 133f 62cc 0bbf
00000370: 2a6a f93e f571 ccbe 7824 f2be 6e06 f7be
00000380: 1c8f dfbe 3e2b f9be 6b14 b8be 76cb 46be
00000390: 70b8 083f be1c 27bf 5d90 053f 64bd 00bf
000003a0: 5862 24bf 884e 69be 6c2e 8abe ca67 f3be
000003b0: 5b7b d1be eba1 2d3f 78fb 04bf 59c0 15bf
000003c0: f913 fcbe d55b 6fbe 4423 93be ec34 a0be
000003d0: 1b4a 4a3f 7392 64bf c9fb e6be 5dd6 d1be
000003e0: 7fed aabe 48cb 2fbe 888a 27bf 2517 8bbd
000003f0: 0959 b8be 0df0 7cbe 4ef1 18bf f72d 80be

linear2.weight f4 [3, 256]
0.00042709254 0.056139633 -0.39079744 0.047186095 -0.026520682 0.003429075 -0.071906894 -0.7096581
0.010297146 0.022319226 1.4914972 0.05188184 0.043531712 0.27815065 0.06519792 -0.19224668
0.031701893 -0.15550828 -0.036010064 0.02151462 0.047762226 -0.3315353 0.029630333 0.07137035
-7.867895e-06 -0.15425657 0.0070177224 0.28867316 0.5519369 0.013384962 0.044634663 0.040981174
-0.11959424 -0.29830825 -0.03268171 0.67634964 -0.3763779 0.034923125 0.31661218 0.088351026
0.06939608 -0.053218026 0.02981204 0.28884354 0.8353893 -0.012509098 -0.0013672333 -5.5266884e-07
0.34043747 0.015433579 0.135214 0.14541359 0.013790648 0.19940706 -0.0058948994 -0.056714427
0.0061051715 0.031045165 -0.027723063 -0.04068633 -0.15240379 -0.2135432 -0.028092531 -0.54861224
-0.3874572 -0.017852316 0.84625846 -0.0017348652 -0.10506181 -0.54114944 -0.057229757 0.51994455
0.036440346 0.0065862983 0.28713876 -0.065740734 -0.6327867 -0.056709807 -0.02360345 -0.4178033
-0.0005548722 -0.05469151 -0.054133445 -0.35758498 -0.043055784 0.202785 -0.30856907 -0.4099706
0.870015 0.56610143 -0.071378894 0.063581325 -0.03599329 0.07591994 0.010912783 -0.009894148
0.027520396 -0.043176282 0.0080994135 0.03709136 0.08923507 -0.06533208 0.2174331 -0.0313628
-0.030305792 -0.024376078 0.18440932 0.034951776 0.015725752 0.1989596 0.025694458 0.39413553
0.05378226 0.30008084 0.11605668 0.05652857 -0.48772565 -0.034178242 -0.006667259 -0.00073231757
-0.026902715 0.014040241 -0.004347774 0.02128978 -0.023465907 -0.029607859 -1.2600855 0.08083161
0.40413725 -0.0019831338 -0.14440514 0.055353086 -0.017016053 0.009569292 -0.19537449 0.007873685
-0.009169062 0.17721564 0.062373478 0.023025371 0.1445843 -0.016175319 0.15530844 0.48689935
-0.041717384 0.22300713 0.07653916 -0.23088719 -0.024942111 0.74439424 -0.040290818 -0.27524278
0.055577382 0.030806521 -0.025813658 -0.07903056 0.13073196 -0.063070394 0.016611591 -0.041427627
-0.007408714 0.040488005 -0.2942218 0.054360032 -4.4140033e-05 -0.29994014 0.089380085 0.0002227099
-0.041425757 -0.0008223202 -0.05667988 -0.16687502 -0.2513869 0.055102274 -0.12271115 -0.320064
0.540539 -0.2560007 0.49869186 0.041097943 0.36787888 -0.22487307 0.0488336 0.090419374
-0.0019339154 -0.032370742 0.7040181 -0.051411312 0.0130421 -0.0015026414 0.058979657 -0.00035768474
0.28433806 -0.28835148 -0.13403656 -0.41143456 0.0030747105 3.057411 0.013378494 0.016319275
-0.11615632 0.005960335 -0.021206222 0.018008603 0.5977612 -0.011181036 0.007333949 0.02095217
0.0014903533 0.71424276 0.6892306 0.000921048 -0.024272101 0.11854804 -0.1710122 -0.041106302
-0.03926139 0.388474 0.31396556 1.3078299 0.5278986 0.016539877 -0.057986647 -0.30585507
-0.39559844 -0.054582655 0.04586532 -0.27138105 0.3821211 -0.30428347 0.54491216 -0.5715304
0.21801317 0.01689487 0.039771173 0.027049735 -0.058552705 0.5448615 -0.0024778477 0.0661636
-0.16677968 -0.025750944 0.09016156 -0.27150533 0.6851852 -0.19026768 -0.032737713 -0.007999796
-0.029119289 -0.030490272 -0.08075954 0.00110102 -0.07366125 -0.1416167 -0.77520126 -0.4643118
00000000: 64eb df39 acf2 653d 9a16 c8be 3546 413d
00000010: e741 d9bc 55ba 603b ec43 93bd 27ac 35bf
00000020: 5cb5 283c cfd6 b63c 61e9 be3f 0d82 543d
00000030: 4f4e 323d c369 8e3e 7d86 853d 50dc 44be
00000040: d8d9 013d 903d 1fbe 4a7f 13bd 6e3f b03c
00000050: 53a2 433d ffbe a9be 50bb f23c 9e2a 923d
00000060: 5a00 04b7 6ff5 1dbe ecf4 e53b f8cc 933e
00000070: bd4b 0d3f 9a4c 5b3c d6d2 363d e0db 273d
00000080: d3ed f4bd dcbb 98be 42dd 05bd 4025 2d3f
00000090: 9bb4 c0be 8d0b 0f3d fe1a a23e 62f1 b43d
000000a0: 881f 8e3d 25fb 59bd 6138 f43c 4de3 933e
000000b0: 13dc 553f f6f2 4cbc bd34 b3ba 1d5b 14b5
000000c0: d24d ae3e 1fdd 7c3c 8a75 0a3e 4de7 143e
000000d0: 2cf2 613c 5d31 4c3e 002a c1bb 634d 68bd
000000e0: e40d c83b 6e52 fe3c 7a1b e3bc b6a6 26bd
000000f0: bd0f 1cbe 12ab 5abe 4f22 e6bc da71 0cbf
00000100: ca60 c6be 053f 92bc 65a4 583f 6b64 e3ba
00000110: a52a d7bd c588 0abf c069 6abd 161b 053f
00000120: 7942 153d e0d1 d73b da03 933e 14a3 86bd
00000130: 4ffe 21bf 8b48 68bd 065c c1bc 50ea d5be
00000140: d874 11ba 3404 60bd 08bb 5dbd 6115 b7be
00000150: 435b 30bd dfa6 4f3e c4fc 9dbe abe7 d1be
00000160: 4eb9 5e3f 06ec 103f 192f 92bd ed36 823d
00000170: b36d 13bd ea7b 9b3d 88cb 323c 111b 22bc
00000180: 7472 e13c 9dd9 30bd 67b3 043c 1ced 173d
00000190: e0c0 b63d d3cc 85bd c8a6 5e3e 4876 00bd
000001a0: da43 f8bc 57b0 c7bc ccd5 3c3e 9829 0f3d
000001b0: 4bd3 803c 11bc 4b3e 2f7d d23c 22cc c93e
000001c0: c94a 5c3d 32a4 993e 20af ed3d 808a 673d
000001d0: 2db7 f9be 7cfe 0bbd 0679 dabb 00f9 3fba
000001e0: 1563 dcbc 0a09 663c c677 8ebb e867 ae3c
000001f0: 933b c0bc 2e8c f2bc 7b4a a1bf 0b8b a53d
00000200: 14eb ce3e 77f7 01bb f1de 13be ebb9 623d
00000210: 4065 8bbc 85c8 1c3c 4010 48be a100 013c
00000220: d539 16bc 0478 353e 557b 7f3d b49f bc3c
00000230: e80d 143e 1a82 84bc 2d09 1f3e df4a f93e
00000240: d9df 2abd fb5b 643e 90c0 9c3d b16d 6cbe
00000250: 6653 ccbc 9f90 3e3f fc07 25bd 9fec 8cbe
00000260: 1ca5 633d f55d fc3c 2a77 d3bc c6da a1bd
00000270: 99de 053e 0d2b 81bd 0815 883c 04b0 29bd
00000280: ccc4 f2bb c0d6 253d 3da4 96be a0a8 5e3d
00000290: 0023 39b8 c191 99be e80c b73d 3c87 6939
000002a0: 0eae 29bd f990 57ba 2929 68bd 49e1 2abe
000002b0: c9b5 80be ecb2 613d fc4f fbbd 6edf a3be
000002c0: c460 0a3f 8612 83be 8a54 ff3e 5156 283d
000002d0: 9f5a bc3e 2045 66be be05 483d cb2d b93d
000002e0: 6f7b fdba 2f97 04bd 883a 343f ab94 52bd
000002f0: 88ae 553c 47f4 c4ba a794 713d a287 bbb9
00000300: c294 913e cea2 93be e140 09be 8da7 d2be
00000310: 1581 493b 9fac 4340 7931 5b3c 00b0 853c
00000320: 5de3 edbd ea4e c33b acb8 adbc c786 933c
00000330: e106 193f aa30 37bc a051 f03b e3a3 ab3c
00000340: f557 c33a 9dd8 363f 6b71 303f 7c72 713a
00000350: 49d6 c6bc 51c9 f23d d21d 2fbe 155f 28bd
00000360: 8dd0 20bd 10e6 c63e 18c0 a03e f866 a73f
00000370: 5d24 073f a37e 873c 6883 6dbd 0999 9cbe
00000380: e18b cabe 1092 5fbd 46dd 3b3d 75f2 8abe
00000390: 60a5 c33e 0bcb 9bbe 5d7f 0b3f d14f 12bf
000003a0: d83e 5f3e 1c67 8a3c 19e7 223d 6897 dd3c
000003b0: f6d4 6fbd 0b7c 0b3f 6363 22bb c880 873d
000003c0: 4bc8 2abe a5f3 d2bc a0a6 b83d bf02 8bbe
000003d0: 4c68 2f3f 88d5 42be fb17 06bd 9411 03bc
000003e0: 938b eebc bcc6 f9bc 4265 a5bd 1a50 903a
000003f0: b6db 96bd f803 11be 9773 46bf 47ba edbe

linear2.bias f4 [3]
0.49259365 0.13139586 -0.06435468
00000000: 3c35 fc3e a38c 063e 63cc 83bd
