model/model.pth (torch, 16787 bytes, 4 tensors)

linear1.weight f4 [256, 11]
00000000: 1f04 cb3d ed3a 7f3c f905 b63d 0342 553f
00000010: f756 28be 5e2b 733e 9753 8c3f bfea 993e
00000020: fab5 1fbf 479e 61bf 6e84 403f 0049 a9be
00000030: f4d9 1ebe 3424 bf3d 5753 573e cd94 75be
00000040: a702 99bd f68c 6bbe a374 033d aa50 babb
00000050: 9a33 af3d 7275 f53c 8ffc 85be 181e 3abe
00000060: eeca d9bd 2894 88be 40a6 833e a608 313e
00000070: 8029 28be 442d 43be ec1d 5b3e 5289 7ebe
00000080: f832 a33d bcd1 33be db7e 9ebb c17b a1be
00000090: 6918 363e 3cc1 98be f364 7b3e 8a1a aebd
000000a0: 31f7 3c3e 1bc3 35be fbfb 57be a1d0 64be
000000b0: 0c32 b5bd 72cd 4bbe 839c c0bd 6903 3b3f
000000c0: 9990 29be a705 8a3f 24ca 76be aa50 6e3f
000000d0: ee87 173e 91b0 bb3e 2c45 f4be 27c2 bc3d
000000e0: c77b fe3d c9f3 b3be 934b 123e 7729 4e3e
000000f0: d96d 50be 493b 5cbe 4a49 65be fa19 40be
00000100: 95ad a63c 2ab2 9abe 48f1 38bd 4004 cfbd
00000110: 4dca 98be 4a74 f0bd 8421 b0bd 12be 7ebe
00000120: 7267 13be e634 243e 0ef7 efbd e898 163e
00000130: bad5 8ebe 87b8 34bc b257 40be 5141 8fbe
00000140: 4b81 133f 01c2 35be fbc8 aabe 6ecc 7fbe
00000150: 7a04 273f 09f0 c43e d084 83bf 2d67 b6be
00000160: c7d1 9a3d 6d1c 6fbe ba78 d4bc 7ff7 2bbf
00000170: f63a b33d f633 1cbe 3916 733f 22ad 043f
00000180: 553f 44bf b4bd 94bf db88 3e3f 7098 153d
00000190: adb3 f13d 874c 8fbe ea00 953f 322e 83be
000001a0: e31f 2c3f 35c3 8f3e 474e 743f 86aa 32bf
000001b0: f4c4 e23c 9ba8 103f e86d b7be 0603 143d
000001c0: 596c be3d d108 01be 181b 573d c723 aebd
000001d0: 8429 1e3d cce6 b8bd 29cd 88be d1da 343e
000001e0: 206e 303e c180 67be e2a9 d13a 6ac4 aabe
000001f0: 1de4 093e 5009 96be 3b88 093c 5dbe 74be
00000200: bc87 2a3e 039b 59bc dedb b8be b092 5d3d
00000210: d908 f63d 1c3b 81be 9e1d 003d 3c2f 073e
00000220: 3a19 153e a460 70be 8d14 c53c 0011 6f3e
00000230: c113 bf3d 052c 12be 0933 e2bd 6c77 60be
00000240: e010 32be 4f98 c3bc 1787 903e 08df cdbe
00000250: 110c 903f 9fb6 c33e 9bc2 9e3f aba6 2a3f
00000260: f54d 403f 5b86 f6be 5d9f d4be dbb0 2e3d
00000270: be38 a6be 23b6 dbbe 2768 1e3e 084b 85be
00000280: faea 0cbf 2001 133f 9598 283e 164e 78be
00000290: 6f33 ff3d 1b66 543e 29d6 8b3e 1f7c ca3e
000002a0: 2f6c 133f 3b54 ab3f 2e3d 2a3f 2f3f 323f
000002b0: 1f53 bcbd e762 3dbf 7564 c3be 5e79 2bbe
000002c0: b529 8d3d d88e 603e 4a85 b43e 7313 843f
000002d0: fd0e 81bf 66a0 c83e 5924 993e 9ac6 253f
000002e0: 8ad3 a5bf 387e f0be 3b7b 13bf 02ba 3cbe
000002f0: c377 d03d d4c8 3fbe e2bc 523f 05a1 963e
00000300: 6609 c6bd 96a9 b23e 6d5c 7bbf d335 b4be
00000310: 386b 793e 1647 e23e fc30 95be 2ea9 c3be
00000320: 1d2c ebbd 942c 133f 33e7 91be 9b07 563f
00000330: 5932 1abf 12cb 27bf ea0f 613f 23f2 cebf
00000340: abb3 77be d4ba 403e 4e1b f8bd b44b 0c3e
00000350: 8153 82bf 6d91 74bd d2de 27be b88a 92bf
00000360: dcf5 473f b699 46be 2ace b73e cc21 9ebf
00000370: 1bb2 72bd 16fa 43be 4099 873d cdce abbe
00000380: 1ff1 68bf c71f 71be 92d8 6ebf 3d16 a63e
00000390: 0f15 743e c78d 33bc 1f10 2f3e c8ba 14bf
000003a0: f137 18bd 176c cabe c816 95be 3f19 c93e
000003b0: 73f2 28be 7286 d13e 21d1 c3bf 719d aabe
000003c0: 0c0b 26bf 8768 3e3f 9997 cdbe 475d 2dbe
000003d0: 366f d5bc e2df 6f3f 9da0 1ebe efc3 96be
000003e0: 7e1f 05bf e2c8 4c3f 56f9 9cbe 5a9c 7bbf
000003f0: 6c38 56bf 6550 68be 1cdf d3bc 50af 13bc
0.099128954 0.015578014 0.08887858 0.8330385 -0.16439424 0.23747012 1.096301 0.3006191
-0.6238705 -0.8813214 0.7520207 -0.33063507 -0.1551283 0.09333077 0.21027885 -0.23982544
-0.07471209 -0.23002991 0.032093655 -0.0056858854 0.08554764 0.029963229 -0.2616925 -0.18175542
-0.10634409 -0.26675534 0.25712776 0.17288455 -0.16422081 -0.19060236 0.21398133 -0.24857071
0.07968706 -0.17560476 -0.0048368997 -0.3153973 0.17782749 -0.29834926 0.24550228 -0.08501156
0.18453671 -0.17750208 -0.21092217 -0.2234521 -0.08847436 -0.1990259 -0.09404852 0.7305208
-0.16559066 1.0782975 -0.24100548 0.93091834 0.14797947 0.36658147 -0.47709024 0.09216719
0.124259524 -0.3514693 0.14286642 0.20133005 -0.20354404 -0.2150699 -0.22391239 -0.1875991
0.020346442 -0.30214053 -0.04515198 -0.101082325 -0.29841843 -0.117409304 -0.086001426 -0.24877194
-0.1439493 0.16035804 -0.11717044 0.14706767 -0.27897435 -0.011030323 -0.18783453 -0.2797952
0.5761916 -0.17749788 -0.3335646 -0.24980327 0.65241206 0.38464382 -1.0274906 -0.35625592
0.07559543 -0.23350687 -0.025936473 -0.67174524 0.0875148 -0.15254197 0.94955784 0.5182668
-0.76659137 -1.1620393 0.74427575 0.03652233 0.118018486 -0.27988073 1.1640904 -0.25621182
0.67236155 0.2807862 0.9543194 -0.6979145 0.027681805 0.5650727 -0.3582604 0.036135696
0.092980094 -0.1260102 0.052516073 -0.08502918 0.03861381 -0.09028396 -0.26719025 0.17661597
0.1722951 -0.2260771 0.0015996064 -0.33352977 0.13465925 -0.2930398 0.008394296 -0.23900743
0.16653341 -0.013281587 -0.36105245 0.05409497 0.12013406 -0.2524041 0.031278245 0.13201612
0.14560404 -0.23474365 0.024057651 0.23346329 0.0932994 -0.14274605 -0.110448904 -0.21920556
-0.1738925 -0.023876337 0.28228065 -0.40209222 1.1253682 0.38225266 1.2403139 0.66660565
0.75118953 -0.4814938 -0.41527835 0.04264913 -0.32465166 -0.42912397 0.15469418 -0.26033807
-0.55046046 0.5742359 0.16464455 -0.24248537 0.12460982 0.20742075 0.2731183 0.39547822
0.5758695 1.338508 0.664996 0.6962766 -0.091955416 -0.7397904 -0.3816258 -0.16745517
0.068927206 0.2192949 0.3525794 1.0318435 -1.0082699 0.39184874 0.29910544 0.64756167
-1.2955182 -0.46971297 -0.5760991 -0.18430331 0.10179093 -0.18728954 0.8231946 0.29419723
-0.09669761 0.3489501 -0.98187906 -0.35197315 0.24357307 0.4419486 -0.29138935 -0.3821501
-0.11483023 0.57489896 -0.28496704 0.83605355 -0.60233074 -0.65544236 0.8791491 -1.6167644
-0.24189632 0.1882127 -0.12114583 0.13700753 -1.0181733 -0.059709 -0.16393593 -1.1448584
0.78109527 -0.19394574 0.35899478 -1.2354064 -0.059251886 -0.19138369 0.06621027 -0.33556214
-0.9099292 -0.23547278 -0.9329921 0.3243884 0.23836158 -0.010959095 0.17095993 -0.58097506
-0.037162725 -0.3953559 -0.29118943 0.39277074 -0.16498737 0.40922886 -1.5298196 -0.33323243
-0.64860606 0.74378246 -0.40154722 -0.16930114 -0.026054006 0.93700993 -0.15490957 -0.2944636
-0.5200118 0.7999402 -0.30658978 -0.9828545 -0.8367984 -0.22686918 -0.025863223 -0.009013966

linear1.bias f4 [256]
00000000: b915 e5bd 6677 4b3d dc03 53be a34f 6f3d
00000010: 2ed2 4bbe 307f c1bd 68d6 523e 0f21 823d
00000020: 1aa9 76be 1e71 f83c 5bfa fabd 2b28 183e
00000030: e7a3 acbe 66f1 54be 12e7 82be 1eca 1c3f
00000040: f4d5 09be 7b62 0f3e 2fa1 86bd 5ea2 083e
00000050: ce6c afbd 609b 1fbe 09c6 1dbd c794 4c3d
00000060: df66 dfbe e43f cc3e e1ea 8c3d 8d97 12be
00000070: ca3c 99be 003a 99be 6292 4dbe 9ba6 48be
00000080: 9c69 a0be 3520 243e 0d17 183f 0036 da3b
00000090: cc74 7bbe 6024 a3bd 09ae 583e c71b 4ebb
000000a0: 5cb0 7c3d 7be1 4cbe 559b cabd a83c ebbd
000000b0: fbd0 8c3d 6602 febd 0c6e 2a3e 8440 953d
000000c0: cbbb 83be 7554 22bd 80b0 13be cc20 b23e
000000d0: 9071 67be ba9c bcbc 4a43 75be 5519 a2bd
000000e0: 1bf1 e03c ec29 11be b389 60be 782b afbe
000000f0: a1b6 a9bd c82b 8a3d 7a48 29be 1a51 833d
00000100: 2edc aabe 0069 5dbd 55b7 c4bd ffca ffbd
00000110: 243a 88be 5296 803e 173b ea3d a6bb a6bd
00000120: 3e03 5d3e 35ed 76bc a7e7 7e3e e9b1 8abe
00000130: 4a54 c33e 52c7 fa3c 4235 833c d12e 293e
00000140: dfde 3b3b 2255 40be 0f16 c9bd cbb7 f8be
00000150: 56a6 73be 1e7d 2ebe 9af6 9dbe 0627 ccbd
00000160: 40e3 3d3e eb43 973d 4700 0b3e 7d7e 95bd
00000170: 642b 7abd 528c e7be f459 cbbe fb15 193e
00000180: b900 393e c88a d93e c45f 9ebe 5cd4 84be
00000190: 09ac 9b3d ed5c 213e 234f ccbe d0d4 d8be
000001a0: 6e4d a0be 8e8a 83be 18fa 9dbe 20bc ed3e
000001b0: fd57 88be b303 80be 9d54 16be c3ba 433e
000001c0: f02c d0be 42e8 bebe a893 c3be d302 a03d
000001d0: 6f20 ccbe cce2 e1bd 1995 00be c922 d33e
000001e0: e8ea 6a3e 6659 70be 1394 d8be df35 a0be
000001f0: 1196 86bd a685 84bb 0c6f 353e 1e9e 63be
00000200: 9d83 293f f012 003c f09c 243c 6eee 0c3e
00000210: 2c61 6dbe a2f1 c7bd df08 a9be b4de 573e
00000220: 4a31 b33d 89ae 43be f1f8 bbbd f57b afbd
00000230: 24cc b83d 6049 1fbe c395 c7be 9951 1f3e
00000240: ae89 8e3e 0e43 043e edd9 b43b 43fc d8bb
00000250: 46e2 59be 27d7 9f3d eb21 7b3d d7f8 7b3d
00000260: 5249 3bbe f37a 8cbe a6af e5bd 2e7a 49be
00000270: 4421 573e c22c f33c dd75 f3be e730 35be
00000280: 4755 52be cd85 17bd 555b 72be 7f38 aabe
00000290: a064 0bbe b6b8 68be a68f c6be 928c cfbd
000002a0: 0564 d7bd b7d0 2e3e 22b6 52be 9091 ac3d
000002b0: 06dc 10be de31 d6bd f16a 063e f205 5b39
000002c0: f5e2 5e3d a674 9d3e 2c1e 98be 4dc5 15bd
000002d0: bc35 93be aee4 6ebe 6b6c bbbe 8b93 ef3d
000002e0: c034 21bc 21fa 6dbe cab8 e53d f060 14be
000002f0: 3e5f 9cbd 56f6 08bd 25b5 aabe eebb 47be
00000300: 935a 5ebe a3e1 823d d7d7 08be 8500 5a3e
00000310: dea1 89be cc17 b1bc f0b9 18be 2ea4 b3bd
00000320: eb7b b73d 88f6 95be 79df 7bbe 7f25 51bd
00000330: 1d35 abbe 6dfe 7fbe 906b 9ebe 60da c1bc
00000340: 9570 86be 566e 0a3e 48d6 d03e 1669 5cbe
00000350: 86c0 acbd da29 febd 29f9 d2be 70da 74be
00000360: 4509 5bbe de53 a73d a02e 07bc cdd8 6c3d
00000370: cbcd 2bbe 684f 223d 82bc bbbd 663b 43be
00000380: 0621 ae3d ec98 5b3d b8b2 6a3c b1f3 343e
00000390: 4b7a b2be 683a ce3d 9f43 90be d3e3 6bbc
000003a0: 351c 5d3c 1e71 1c3e 6158 bfbd 56a6 0abf
000003b0: 9742 77bd 3af4 babe d29f a43d fdfd 003d
000003c0: d661 51be f5f4 4d3e d573 973e 9d0f dc3c
000003d0: 4934 123e 8f31 1c3e 25f5 88be f275 ac3c
000003e0: 2cb8 03bd 36af 1fbe e178 4c3d 1a9f 953e
000003f0: ddc2 59be 2693 993e eb48 c83d cc2e f4be
-0.11185784 0.049674414 -0.20606941 0.058425557 -0.19904396 -0.09448087 0.20589602 0.06353962
-0.24087945 0.030327376 -0.12254783 0.14859073 -0.33718798 -0.20795211 -0.25566918 0.61245906
-0.13460523 0.14002411 -0.06573712 0.13343188 -0.08565675 -0.15586615 -0.03851894 0.049946573
-0.43633172 0.39892495 0.06880737 -0.14315625 -0.2992919 -0.29927063 -0.20075372 -0.19594805
-0.31330574 0.16027911 0.5941017 0.0066592693 -0.24556273 -0.07965922 0.21160139 -0.0031449662
0.061691627 -0.20007889 -0.098929085 -0.11486179 0.06875797 -0.12402801 0.16643542 0.07287696
-0.25729212 -0.039631326 -0.14422798 0.34790647 -0.22601914 -0.023023952 -0.2395145 -0.07914988
0.027458718 -0.14176148 -0.21927528 -0.34212852 -0.08286787 0.06746632 -0.16531554 0.06411953
-0.3337111 -0.054055214 -0.0960528 -0.1248989 -0.26606858 0.25114685 0.11437052 -0.0814126
0.21583268 -0.015071203 0.24893056 -0.2708886 0.38150245 0.030612621 0.016016606 0.16521765
0.0028666777 -0.18782476 -0.098186605 -0.48577723 -0.23793921 -0.17039916 -0.30852205 -0.09968381
0.1854372 0.07386001 0.13574325 -0.07299516 -0.061076537 -0.45224243 -0.39717066 0.14949791
0.18066682 0.42488694 -0.30932438 -0.25943267 0.076011725 0.15758105 -0.39904127 -0.42349863
-0.31309074 -0.25691646 -0.3085487 0.4643259 -0.2662963 -0.25002822 -0.14680715 0.19114213
-0.40659285 -0.37286574 -0.3819859 0.07813039 -0.39868495 -0.11029586 -0.12556876 0.41237476
0.22941172 -0.23471603 -0.42300472 -0.312911 -0.06571592 -0.0040442524 0.17718142 -0.22228286
0.6621645 0.007817015 0.010047182 0.13762829 -0.231816 -0.09762885 -0.3301458 0.21081048
0.087496355 -0.19109549 -0.09178341 -0.08568565 0.09023312 -0.15555334 -0.38981447 0.15558471
0.27839416 0.12916204 0.005519143 -0.006621869 -0.21277723 0.07804709 0.061311644 0.06151661
-0.18289688 -0.27437553 -0.11215143 -0.19675514 0.21008784 0.029684428 -0.4755086 -0.17694436
-0.20540343 -0.036992837 -0.23667653 -0.33246228 -0.13612604 -0.22726712 -0.3878147 -0.101342335
-0.10517124 0.17071806 -0.2057729 0.08426201 -0.14146432 -0.1045873 0.13126732 0.00020887682
0.05441566 0.30753058 -0.2971052 -0.036565114 -0.28751934 -0.23329422 -0.36606154 0.116980635
-0.009839237 -0.23239948 0.11216886 -0.14490104 -0.076353535 -0.03343805 -0.33341327 -0.19505283
-0.21714239 0.06390693 -0.13363586 0.2128926 -0.26881307 -0.021617793 -0.1491468 -0.08771549
0.08959182 -0.2928965 -0.24596967 -0.05106115 -0.3343896 -0.249994 -0.3094144 -0.0236637
-0.26257768 0.13518652 0.40788484 -0.21524462 -0.084351584 -0.12410326 -0.4120572 -0.23911452
-0.21390255 0.08170293 -0.008250862 0.057823945 -0.16777723 0.03962651 -0.091668144 -0.19065627
0.085023925 0.053612635 0.014324836 0.17671086 -0.34858927 0.10069734 -0.2817659 -0.014397579
0.013495495 0.15277526 -0.09343029 -0.5416006 -0.06036624 -0.36514455 0.08038296 0.031492222
-0.20447478 0.20112975 0.2958056 0.026862914 0.14277758 0.1525328 -0.2674953 0.021052334
-0.03215806 -0.15594181 0.049919967 0.29222947 -0.2126574 0.29995078 0.09779533 -0.47691953

linear2.weight f4 [3, 256]
00000000: 3a7f 623f 93c8 3a3c 8010 31bc 03de cb3b
00000010: 5731 3e3f f410 6b3c 56e9 1fbd d808 cf3e
00000020: 63f8 433f b244 573f 2088 93bd 1112 2cbd
00000030: 2420 ab3b f580 303f 7d6a b93d 45d4 923f
00000040: 8a3c 253f f397 953e d91a 04be 7b90 08be
00000050: 63cb d93b 1c42 63bf 2527 f03e f3c6 2a3f
00000060: c3ea 97bd 1940 e13e 8e87 483d 51af d03e
00000070: 66be bcbc b1f1 c13b 2a8f 6ebd 7e5d 71be
00000080: 95e8 163f 0077 8b3b 63de 853f 90a4 a9bc
00000090: 4e6c 76bd d21b 63bd 8f74 1bbc 5cc9 873e
000000a0: 23d1 823f c6dd a13b 6966 b2bc ec1e 023d
000000b0: 166a e13e b553 0bbc 8cf4 9b3f 4e4e d43e
000000c0: 3327 92bc fd81 803d 2254 663f 0ca9 3f3f
000000d0: bafb 51bd fb8f 313f 25bd 6bbc 7b98 f0bc
000000e0: 51a6 ad3c 78c4 28bd 6537 cbbc c1e7 35bd
000000f0: b037 943f 403c fe3b 451e b1bb 15e8 34bd
00000100: f1db 343f bb92 e03a a0d7 903e 30c1 b83f
00000110: 02ee 843e 1d79 513f a2d6 1d3c 3f3e dbbe
00000120: 13db f03d cafa 383f 4e70 413d 20c1 05bd
00000130: 48af 873f 13bb 46bc 6cf2 03bc e415 b63d
00000140: 92ac 29be 5fbe 6fbc d489 6a3b 6f1c a83e
00000150: 88c1 533c 4407 043c 0a6d 1f3f f940 48bd
00000160: 0dac 3fbf 4b5e c43e 1767 913f 7026 b53f
00000170: cfed cabc 5f7f 1ebf 6774 58bb 635f 963f
00000180: 6091 903f c675 843f 872d 013d 94ca 59bd
00000190: c622 3c3f 4fea cfbc 565e f9bd ec79 733e
000001a0: 0d78 8e3e 046a 0f3d a00e 113f 6aa6 c03f
000001b0: 1e15 95bc 46ff 903c dabf 4e3d 73b7 bb3f
000001c0: 7048 1cbe 9b4c 223d 2378 febe 3d92 9b3f
000001d0: 60b7 15bf 5d1f 003e fa1f c83e 1aeb f13e
000001e0: 148f 37bc ce2b b0bb f3d3 523c 4fcd 75be
000001f0: 51ad 5fbc 841f c33f 566d 323d 1588 493f
00000200: 8a4a 1f3f 8413 f3bc 8d56 343f a175 f03e
00000210: 106a d03b 1ec6 323f 95ac 893e 0d7c b33f
00000220: 1243 0c3c fcd4 c03d c1e9 a2bc c56f 52be
00000230: b0f4 09bd 0528 2b3e d834 1a3e ac53 173f
00000240: a16a 403f 72d6 4a3f a818 31bd 0979 893f
00000250: 4205 0d3d 18f2 503e 53b0 b7bd 0337 903f
00000260: 6d9c ffbe cb3a 233e c0a7 d1bb 8838 a63c
00000270: b042 4b3d c8e9 2b3d c375 04be 4c2d 91be
00000280: 49a7 813e 936b 5c3c c2b8 0abc ffea 123f
00000290: 2863 60be 3d92 78bd 920b 9b3f 6e2f b0bc
000002a0: 28e1 84bd 63e5 423f d09e fcbb 7821 0b3f
000002b0: d429 1e3c b699 14be 27cb 0e3e 06e9 e2bc
000002c0: a3bb d73d 231d 763f e85b 02bd 9dc9 243f
000002d0: 94b5 333e 4759 913e e882 893e 522e af3f
000002e0: b8e9 173c c0c4 493d 5f33 53bd 08c0 af3c
000002f0: c196 143d 6af7 39be 9d25 83bb 4f47 a7bb
00000300: 8534 4ebe f6b0 2a3c 65e1 f53c 329a a13f
00000310: beb8 1f3d a147 fc3d 24d5 113d d027 59be
00000320: 7c58 433b 7bfc e03c b932 8abd 0fcc d1bd
00000330: bd75 da3e 8584 18bd c17d f7bc f48b a8bc
00000340: 53f0 5f3e 6bdd 0e3f 7e6a cd3e 68aa 303c
00000350: 0c10 17bd f839 12bb eb74 68bd e07e 473c
00000360: 80d4 f73c ea2a c63f ae0d 04bd 0955 e4ba
00000370: bce5 0e3f 4c9d 15bd 618e 90bd deda 34be
00000380: c49a 5a3f bbc2 1c3e 0c56 ba3e 53f7 ce3e
00000390: f64e f6bc d836 8f3c 48f5 a9bc 201e e03b
000003a0: 3043 bfbc 59b7 a8be 0ac0 483f 2053 953e
000003b0: e073 18be fdad 003f 2cce e53b 9ea2 923e
000003c0: 3600 ac3f 4141 253c 5077 f23e 90f4 09bd
000003d0: a049 8c3e dbbb dd3e 02a7 093e b440 c53e
000003e0: 5935 b03d 390c 8dbd bac0 283f c9c0 12be
000003f0: fe7e e93d 209f 343c a01c 80bd 942f dcbd
0.8847538 0.01140036 -0.010807157 0.006221534 0.74294037 0.014347304 -0.039040886 0.40436435
0.76550883 0.84089196 -0.07203698 -0.042009417 0.0052223373 0.6894677 0.09053514 1.147103
0.645455 0.2921749 -0.12900867 -0.13336365 0.00664656 -0.8877275 0.46904865 0.6670982
-0.07417824 0.43994215 0.0489574 0.40758756 -0.023040008 0.0059187044 -0.058242 -0.2357082
0.5894864 0.0042561293 1.0458492 -0.020708352 -0.06016188 -0.055446453 -0.009488239 0.26520813
1.0220073 0.0049397675 -0.021777349 0.03176777 0.4402625 -0.008503844 1.2184005 0.41465992
-0.017840957 0.06274793 0.89972126 0.7486732 -0.051265456 0.6936032 -0.014388357 -0.029369583
0.02119747 -0.041202992 -0.024806688 -0.04441047 1.1579494 0.007758647 -0.0054052197 -0.044166643
0.70648104 0.0017133573 0.2828951 1.4433956 0.25962836 0.8182543 0.009633692 -0.42820928
0.11760535 0.72257674 0.047226243 -0.03265488 1.0600367 -0.012129563 -0.008053403 0.08890894
-0.16569737 -0.01463279 0.0035787718 0.32834193 0.012924559 0.008058373 0.62275755 -0.048890088
-0.74871904 0.3835319 1.1359586 1.4152355 -0.0247716 -0.619131 -0.0033028366 1.174786
1.1294365 1.0348442 0.03153756 -0.05317171 0.7349056 -0.025380282 -0.12176196 0.23776978
0.27825966 0.035013214 0.5666294 1.5050786 -0.018198546 0.017699849 0.050475933 1.4665359
-0.15262008 0.039623838 -0.49701032 1.2154003 -0.58482933 0.12511964 0.39086896 0.4724968
-0.011203546 -0.0053763157 0.012867915 -0.240041 -0.013652162 1.5243993 0.043561302 0.7872327
0.6222311 -0.029672392 0.70444566 0.46964744 0.0063603 0.6983355 0.26889482 1.4022232
0.008560913 0.094156235 -0.019886853 -0.20550449 -0.033680618 0.16714485 0.15059221 0.5911205
0.751627 0.7923347 -0.043236405 1.0740062 0.034428842 0.20404851 -0.08969178 1.1266788
-0.4992403 0.15940396 -0.006398171 0.020290628 0.049624145 0.041970998 -0.12935548 -0.2835487
0.2532294 0.013453382 -0.008466901 0.57389826 -0.21912825 -0.06068634 1.2112906 -0.021506991
-0.06488258 0.76131266 -0.0077093616 0.54347944 0.009653527 -0.14511761 0.13944684 -0.027699005
0.10533836 0.9613821 -0.03182593 0.6437014 0.17549735 0.28388426 0.26857686 1.3686011
0.0092720315 0.0492599 -0.051562663 0.021453872 0.036276583 -0.18160787 -0.0040022866 -0.005104936
-0.20137222 0.010418167 0.030014703 1.2625182 0.038994543 0.1231835 0.035603657 -0.21206594
0.002980738 0.027464142 -0.06747956 -0.10243999 0.42667952 -0.037235755 -0.030211331 -0.020574547
0.2186902 0.55806607 0.4012031 0.0107828155 -0.036880538 -0.0022312384 -0.056752127 0.012176245
0.030252695 1.5481846 -0.03223961 -0.0017420362 0.55819297 -0.036526963 -0.070584066 -0.17661616
0.85392404 0.15308659 0.36393774 0.40423068 -0.030066948 0.017482206 -0.020746842 0.0068395287
-0.023347467 -0.32952383 0.7841803 0.29164982 -0.14887953 0.50265485 0.007013103 0.28639692
1.3437564 0.0100863585 0.47356653 -0.0336805 0.2739992 0.43307385 0.13442615 0.38525927
0.08603925 -0.06887097 0.6591908 -0.14331354 0.11401175 0.0110242665 -0.0625546 -0.10751262

linear2.bias f4 [3]
00000000: aa31 2e3f 56d9 b33d 686b d33d
0.6804453 0.08781688 0.103232205
