model/model.pth (torch, 16787 bytes, 4 tensors)

linear1.weight f4 [256, 11]
0	0xbd24dcec	-0.04024975
1	0xbe2afce1	-0.16698028
2	0xbde3945d	-0.111122824
3	0xbe5bc084	-0.21460158
4	0xbdafcb77	-0.0858373
5	0xbe141592	-0.14461353
6	0x3e21dbb3	0.15806465
7	0xbe9fc76e	-0.3120684
8	0xbe9415bd	-0.28922835
9	0x3e586e5c	0.21135849
10	0x3e0f9084	0.14019972
11	0x3dd67f54	0.10473505
12	0x3e221a9a	0.1583046
13	0xbece68fc	-0.40314472
14	0xbe99bd78	-0.30027366
15	0xbe09a454	-0.13441592
16	0xbe85e663	-0.26152334
17	0xbe49de92	-0.1971381
18	0xbe51e384	-0.20496947
19	0xbe9f42cf	-0.31105658
20	0x3e32641f	0.17421006
21	0x3e34e609	0.17665876
22	0xbd3a7b4e	-0.04552775
23	0x3d1f951a	0.038960554
24	0xbe8b9518	-0.27262187
25	0x3e14df59	0.14538325
26	0xbd971fa4	-0.07379082
27	0xbdde3344	-0.10849622
28	0xbdf5ead0	-0.120076776
29	0xbdc0c032	-0.09411658
30	0x3e816d34	0.25278628
31	0xbe31a59e	-0.17348334
32	0xbe4eade6	-0.20183524
33	0x3e49149d	0.1963677
34	0x3d93bfb9	0.072143026
35	0xbdef4441	-0.1168294
36	0x3db57201	0.08859635
37	0xbe3b3f7c	-0.18285936
38	0xbe6aff00	-0.22948837
39	0xbe460079	-0.19336118
40	0xbeb38bb7	-0.3506753
41	0xbe0385cf	-0.12844013
42	0xbe5b7711	-0.21432139
43	0xbe35ce93	-0.17754583
44	0xbce9673e	-0.028491613
45	0xbe911363	-0.28335103
46	0xbe8dc306	-0.27687854
47	0x3df4bcd2	0.11950077
48	0xbdc7fde4	-0.09765223
49	0x3e69c6cb	0.2282974
50	0xbe77486e	-0.24148723
51	0xbd407ae8	-0.046992213
52	0x3e3f2333	0.18665771
53	0x3e691b00	0.22764206
54	0xbe110bbf	-0.14164637
55	0x3d9f52cd	0.07779465
56	0xbe59a242	-0.21253303
57	0xbe9f4600	-0.31108093
58	0xbe9877fa	-0.29779035
59	0xbdbd2d0a	-0.09237106
60	0x3c9f7f3b	0.019469848
61	0xbe62989e	-0.22128531
62	0x3e5b3104	0.21405417
63	0xbe2860d6	-0.1644319
64	0xba8d0e00	-0.0010761619
65	0xbe8e0df6	-0.27745026
66	0xbda29926	-0.07939367
67	0xbe849933	-0.25898132
68	0xbd804274	-0.06262675
69	0xbe1126c9	-0.14174952
70	0xbe992655	-0.29912058
71	0xbdeec8c4	-0.11659387
72	0x3e3691c2	0.1782904
73	0xbca38090	-0.019958764
74	0x3da80034	0.08203164
75	0xbdc5d0ae	-0.09658943
76	0x3a878400	0.0010339022
77	0xbe2ad0f4	-0.16681272
78	0xbde3869e	-0.111096606
79	0x3e8b79ec	0.27241457
80	0x3e81d426	0.2535717
81	0xbdb5e534	-0.08881608
82	0xbe879720	-0.26482487
83	0x3ea5401a	0.32275468
84	0xbea5c7f1	-0.32379106
85	0x3e42bf6e	0.19018337
86	0x3d314a51	0.043283764
87	0x3d9780ee	0.07397638
88	0x3c99910e	0.018745925
89	0xbeafeb33	-0.3435913
90	0x3d4f9375	0.050677735
91	0x3da4a758	0.08039731
92	0xbec5c84f	-0.38629386
93	0x3d068bb2	0.032848068
94	0xbdbf9f45	-0.0935655
95	0x3e77ca9d	0.24198385
96	0x3d67b7df	0.056571838
97	0xbe410be9	-0.188522
98	0xbec084a4	-0.37601197
99	0xbe4e051e	-0.2011914
100	0xbe6da392	-0.23206928
101	0xbc6abeb2	-0.014327692
102	0xbe4aad94	-0.19792777
103	0x3e0e7f8a	0.1391584
104	0xbd1048a0	-0.03522551
105	0x3dc6e5ec	0.09711823
106	0xbca558c0	-0.02018392
107	0x3db8b6ca	0.09019239
108	0x3e63d0ec	0.22247666
109	0xbcb9e460	-0.022691905
110	0xbde9ffef	-0.114257686
111	0x3e035e4d	0.12828942
112	0xbc18e06a	-0.009330848
113	0xbd955e70	-0.07293403
114	0xbea0f8e2	-0.31439883
115	0xbd4f42a4	-0.050600663
116	0x3c90a1dd	0.017655307
117	0xbd26367a	-0.040579297
118	0xbe64e6e3	-0.22353701
119	0xbda0143f	-0.07816362
120	0xbdd86ddc	-0.10567829
121	0x3e80bf7d	0.25146094
122	0xbe526581	-0.20546533
123	0xbe993f58	-0.2993114
124	0xbe7a0f75	-0.24419959
125	0x3e85ac56	0.26108044
126	0xbe58f381	-0.2118664
127	0xbdeb8eab	-0.11501821
128	0x3e0a1385	0.13484009
129	0x3e8810ec	0.2657541
130	0xbeb8e1ac	-0.36109674
131	0xbe9a6029	-0.3015149
132	0xbd56c1bc	-0.052430853
133	0xbdbf2e81	-0.09335042
134	0xbdafdfc8	-0.08587605
135	0xbefb7783	-0.49114618
136	0xbde1d83c	-0.110275716
137	0xbe9bec27	-0.30453607
138	0x3e6de9af	0.23233674
139	0xbc8203e2	-0.015870992
140	0x3e9132a5	0.2835895
141	0x3e9b86dd	0.3037633
142	0x3e57dd97	0.21080624
143	0xbdb15f28	-0.08660728
144	0xbe2fc426	-0.17164668
145	0xbdb3ab3c	-0.08772895
146	0xbe8c9638	-0.27458358
147	0xbe991ba9	-0.29903916
148	0xbe8a870b	-0.27056155
149	0xbe968eb7	-0.29405758
150	0xbd9f1f2a	-0.07769616
151	0x3df1dde8	0.118099034
152	0x3e846034	0.25854647
153	0xbddaf3ac	-0.10691008
154	0xbe42fa89	-0.19040884
155	0x3d1ba666	0.038000487
156	0xbdde6759	-0.10859556
157	0x3d3af46c	0.045643255
158	0xbe64b090	-0.22332978
159	0x3dd27e69	0.10278017
160	0x3e332ab1	0.17496754
161	0x3e08e3e2	0.1336818
162	0x3dfd8bc3	0.12380173
163	0x3d6af6fa	0.05736444
164	0xbe0d321c	-0.13788646
165	0x3de85635	0.11344568
166	0xbda39897	-0.079880886
167	0xbe67e2fd	-0.22645183
168	0x3db925d9	0.09040422
169	0x3e30a7f0	0.17251563
170	0x3dc2845d	0.094979025
171	0xbe018275	-0.12647422
172	0xbe7fb9e3	-0.24973254
173	0xbe3d52d2	-0.18488625
174	0x3e8ccd6d	0.27500477
175	0xbe9116b0	-0.28337622
176	0x3c8e099b	0.017338565
177	0xbe849101	-0.2589188
178	0xbda4685f	-0.0802772
179	0xbe9c63d8	-0.30544925
180	0xbd37338a	-0.044726886
181	0xbdc14cb4	-0.09438458
182	0x3dc27376	0.09494679
183	0xbd4128fe	-0.047158234
184	0x3c0a6874	0.008447755
185	0xbde6c110	-0.112672925
186	0x3e3e9e26	0.18615016
187	0xbe017c93	-0.12645178
188	0xbd5eac9d	-0.054363836
189	0xbe3f3b6b	-0.1867501
190	0xbea606f9	-0.32427195
191	0x3d0a297f	0.03373098
192	0x3d4ba37f	0.04971647
193	0xbde7dc35	-0.11321298
194	0x3e30afd5	0.17254575
195	0x3dd6cb66	0.10488014
196	0xbe07728d	-0.13227291
197	0xbec24cb0	-0.37949133
198	0xbdfb5ecc	-0.122739404
199	0xbe832a85	-0.25618377
200	0xbe636868	-0.22207797
201	0x3e265f3a	0.16247264
202	0x3d8c6f8c	0.068572134
203	0xbe80cf76	-0.2515828
204	0x3e1f0f92	0.15533283
205	0xbdd9c442	-0.10633136
206	0xbdff1e12	-0.12456907
207	0xbe639fce	-0.2222893
208	0x3dbc1b20	0.09184861
209	0xbe4ad044	-0.1980601
210	0xbc89557e	-0.016764399
211	0xbd0ee4e2	-0.03488625
212	0xbe83be8b	-0.2573131
213	0xbdf29a9e	-0.11845897
214	0xbd80813a	-0.06274648
215	0xbd46b80f	-0.048515376
216	0xbde46cf8	-0.11153597
217	0x3d4bd88a	0.049767055
218	0x3e10137d	0.14069934
219	0x3d88cc23	0.06679561
220	0xbe31e837	-0.17373739
221	0xbe1a8231	-0.15088727
222	0xbd918e35	-0.07107202
223	0xbce4cb0b	-0.02792885
224	0xbe748ea7	-0.23882543
225	0x3dbbe70d	0.09174929
226	0x3e2d145f	0.16902302
227	0x3d81fd31	0.063471206
228	0xbb0b303a	-0.0021238462
229	0xbec2244e	-0.37918323
230	0xbe184fe8	-0.14874232
231	0x3def9671	0.11698616
232	0x3d4e8eb1	0.05042905
233	0xbe216a73	-0.15763263
234	0xbe085da5	-0.13316973
235	0x3e463d67	0.1935936
236	0xbe974343	-0.29543504
237	0x3e599b8b	0.21250741
238	0xbeb02016	-0.3439948
239	0xbce41b8b	-0.027845165
240	0xbe56cdfa	-0.20977011
241	0xbd5e3511	-0.054249827
242	0xbe80bbe0	-0.25143337
243	0x3e377d52	0.179189
244	0xbe1b0bd7	-0.15141235
245	0xbd5dc958	-0.054147094
246	0x3e3734c2	0.1789122
247	0x3d38d058	0.045120567
248	0x3e40b122	0.18817571
249	0x3d95a358	0.07306546
250	0x3cd246c0	0.025668502
251	0xbd9d9cc2	-0.07695915
252	0xbe219b27	-0.15781842
253	0x3e7c9c1c	0.24668926
254	0xbe74d85b	-0.23910658
255	0xbe3f871e	-0.18703887

linear1.bias f4 [256]
0	0xbe48ee73	-0.19622211
1	0xbdfe65c9	-0.12421758
2	0xbe1e7499	-0.15474166
3	0x3e52ad1b	0.20573847
4	0xbe1681d3	-0.14697962
5	0x3e5469c8	0.20743477
6	0xbdac8012	-0.08422865
7	0xbe80e15a	-0.2517193
8	0xbde1a9aa	-0.11018689
9	0xbdb231c0	-0.08700895
10	0xbdb4499c	-0.088031024
11	0xbdcea134	-0.10089341
12	0x3cac7ab8	0.02105461
13	0xbdd0ce1e	-0.10195564
14	0xbde03625	-0.10947827
15	0xbe70f55b	-0.23531096
16	0xbdfb5847	-0.12272697
17	0x3dbf7c9e	0.09349941
18	0xbe069d99	-0.13146056
19	0xbb7d7e48	-0.0038680006
20	0x3e052349	0.13001741
21	0xbdc56998	-0.09639281
22	0xbe628da1	-0.2212434
23	0xbe847d90	-0.25877047
24	0x3dde5c6b	0.10857471
25	0xbe68649e	-0.22694632
26	0xbd91441b	-0.07093068
27	0xbe81c120	-0.25342655
28	0xbe06a85c	-0.13150162
29	0xbdfb57d7	-0.122726135
30	0xbdbcb8eb	-0.09214958
31	0xbcfb82f2	-0.030702088
32	0xbe8adf68	-0.2712357
33	0x3e2441b3	0.16040687
34	0xbe495965	-0.19663008
35	0xbeb9491b	-0.36188588
36	0xbe900672	-0.28129917
37	0xbe8f43de	-0.27981466
38	0xbe8f660b	-0.2800754
39	0xbe1068dc	-0.141025
40	0x3e1bd7f7	0.15219103
41	0xbde72df8	-0.11288065
42	0xbe455f08	-0.19274533
43	0x3db6dfe9	0.08929426
44	0x3ce9f85f	0.028560815
45	0xbe2d56dd	-0.16927667
46	0x3ddd677b	0.10810753
47	0xbe822449	-0.25418308
48	0xbdd8ce94	-0.10586277
49	0xbea7ec52	-0.32797486
50	0xbe8638d6	-0.26215237
51	0xbeb55dce	-0.3542313
52	0x3e006046	0.12536725
53	0xbec7cca2	-0.3902331
54	0xbbd8fec4	-0.0066221673
55	0x3e5b140f	0.2139437
56	0xbe59a886	-0.21255693
57	0xbc397ca0	-0.011321217
58	0xbe4819fc	-0.19541162
59	0xbda6119f	-0.0810883
60	0xbdc082ee	-0.09399973
61	0xbe91a9d5	-0.28449884
62	0xbea2a473	-0.3176609
63	0xbde42fb8	-0.11141914
64	0x3e3f2dfb	0.18669884
65	0xbd2f7d68	-0.042844206
66	0xbeb8fb52	-0.36129242
67	0x3d161f97	0.03665122
68	0x3e6b7e8d	0.22997494
69	0x3d01b512	0.031666823
70	0xbe142682	-0.14467815
71	0xbe15358f	-0.14571212
72	0xbe8208ff	-0.25397488
73	0x3beab48e	0.007162637
74	0x3e1652df	0.1468005
75	0xbe99ce18	-0.3004005
76	0xbe67433e	-0.22584245
77	0xbe845984	-0.25849545
78	0xbe3b5236	-0.1829308
79	0xbcc06050	-0.023483425
80	0xbe810750	-0.25200891
81	0x3e7b434c	0.2453739
82	0xbd2e490e	-0.04255014
83	0x3ec7341b	0.3890694
84	0x3dd9cee8	0.10635167
85	0x3d0ba973	0.034097146
86	0xbea56e67	-0.32310793
87	0xbe67036d	-0.225599
88	0xbd6c75ed	-0.05772965
89	0x3d654d58	0.055981964
90	0xbca22720	-0.019794047
91	0xbd95ef07	-0.073209815
92	0x3da6f206	0.08151631
93	0xbdbb8985	-0.09157089
94	0xbe4745dd	-0.19460244
95	0xbe96e2ee	-0.2947001
96	0xbb85e200	-0.004085779
97	0xbdc442eb	-0.09583076
98	0xbe4c94c7	-0.19978629
99	0xbdfd397d	-0.12364481
100	0x3e346a32	0.17618635
101	0x3de25086	0.11050515
102	0x3de276b6	0.110577986
103	0xbedc9752	-0.43084198
104	0xbdb757e0	-0.08952308
105	0xbe7f8a1a	-0.24955025
106	0x3e82367b	0.2543219
107	0x3e40ca06	0.18827066
108	0x3d3eb7d1	0.04656202
109	0xbe2de14c	-0.16980475
110	0xbe0f5a8c	-0.13999385
111	0xbd475fc9	-0.048675332
112	0x3cd076c9	0.025447266
113	0xbe0142e3	-0.12623172
114	0x3af35132	0.0018563627
115	0xbe83cb65	-0.25741115
116	0xbe857e6b	-0.26073012
117	0xbd93a38a	-0.07208927
118	0x3a38980d	0.00070417003
119	0x3ccc698f	0.024952678
120	0xbe04d830	-0.12973094
121	0x3e10d369	0.14143147
122	0xbdbc9e13	-0.09209838
123	0xbc9ea487	-0.019365562
124	0x3e7e287b	0.2482013
125	0xbe8106c2	-0.25200468
126	0xbccc36f1	-0.024928542
127	0x3db4343d	0.08799026
128	0xbe61e7a4	-0.2206102
129	0xbe83a189	-0.2570918
130	0xbebf6d3a	-0.3738802
131	0x3df9333c	0.12167975
132	0xbe5e5241	-0.21711065
133	0xbe063674	-0.1310671
134	0xbcb670b0	-0.02227053
135	0x3d5b1ba7	0.05349317
136	0xbc112dc1	-0.008861006
137	0xbdd5a5de	-0.10432027
138	0x3da24a9d	0.079243876
139	0x3e160b65	0.14652784
140	0x3d89436b	0.06702312
141	0x3d67d34b	0.05659799
142	0xbe637f90	-0.2221663
143	0xbe9487f4	-0.29009974
144	0xbdf41566	-0.11918144
145	0xbe71d4d4	-0.23616344
146	0xbd28a2d6	-0.041170917
147	0xbe9a9c0a	-0.30197173
148	0x3db65ccc	0.08904418
149	0xbe878784	-0.26470578
150	0xbe85149c	-0.25992286
151	0xbe68ada0	-0.22722483
152	0x3e40749f	0.18794487
153	0x3d14e9be	0.036355726
154	0xbe8af752	-0.27141815
155	0xbda0468f	-0.07825958
156	0xbe792cc9	-0.2433349
157	0xbe221239	-0.15827264
158	0xbea33a0b	-0.3188022
159	0xbd097373	-0.033557367
160	0x3e5a19fa	0.21298972
161	0xbe729df8	-0.23693073
162	0xbe16fadc	-0.14744133
163	0xbd194429	-0.03741852
164	0x3e2cdeec	0.16881913
165	0xbe5b911f	-0.21442078
166	0x3d3c0971	0.04590744
167	0xbe55c807	-0.20877086
168	0x3dca6faf	0.09884583
169	0xbe77c71a	-0.24197045
170	0xbe06a13a	-0.1314744
171	0xbec69697	-0.38786766
172	0x3de4fe39	0.111813016
173	0xbe58ed55	-0.21184285
174	0xbe2c16f7	-0.16805635
175	0x3e366d4b	0.1781513
176	0xbe8039e2	-0.2504416
177	0xbeacc35c	-0.33742797
178	0xbd92f90c	-0.07176408
179	0x3ddf9905	0.10917858
180	0xbe2b252f	-0.16713403
181	0x3e056948	0.13028443
182	0x3d6c2d99	0.057660673
183	0x3e18c0ca	0.14917293
184	0x3e091522	0.13386968
185	0x3e0a2902	0.13492206
186	0xbdbd96dd	-0.092572905
187	0x3e1bb59f	0.15206002
188	0xbdd6925b	-0.10477134
189	0xbb1752d0	-0.0023090132
190	0xbe422597	-0.18959652
191	0xbc61430c	-0.013748895
192	0xbe528354	-0.2055791
193	0xbdfb6de2	-0.12276818
194	0x3dd58a3e	0.10426758
195	0xbecdaeff	-0.40172574
196	0xbe06b10e	-0.13153479
197	0x3e520c4d	0.20512505
198	0x3db9e8f2	0.09077634
199	0xbe00d427	-0.1258093
200	0xbdb019aa	-0.08598645
201	0x3e74a493	0.23890905
202	0x3c09fb97	0.0084218
203	0x3c3bae73	0.011455166
204	0xbeba1bce	-0.36349338
205	0x3c62702d	0.01382069
206	0x3ce4127b	0.027840843
207	0x3d24b938	0.0402157
208	0xbb88d090	-0.004175253
209	0xbdc427ca	-0.09577902
210	0xbe6d7ce9	-0.2319218
211	0xbd924c4e	-0.0714346
212	0xbdb8727f	-0.090062134
213	0x3e496c32	0.1967018
214	0x3dee3710	0.11631596
215	0x3ce65511	0.028116735
216	0x3a9703d1	0.0011521523
217	0xbd95d4fe	-0.07316016
218	0xbebd3f26	-0.3696224
219	0xbdbac462	-0.09119488
220	0xbeb029a2	-0.34406763
221	0x3e026bc5	0.12736423
222	0x3e203e0b	0.15648668
223	0xbebc727c	-0.36806095
224	0xbe3073ad	-0.17231627
225	0xbd90a423	-0.070625566
226	0xbea43317	-0.32070228
227	0xbe852659	-0.2600582
228	0xbe33ba2e	-0.1755149
229	0x3e2ec5c4	0.17067629
230	0xbbed7272	-0.007246309
231	0xbe745803	-0.23861699
232	0xbcf784e7	-0.03021474
233	0xbb71b830	-0.0036883466
234	0xbdc62d3d	-0.09676597
235	0x3da123c8	0.07868153
236	0xbeb039a6	-0.34418982
237	0xbd36d4eb	-0.04463665
238	0x3e18e34b	0.14930455
239	0x3dbeb036	0.09310953
240	0x3e370fd1	0.17877127
241	0xbe501239	-0.20319451
242	0xbe9d4f6e	-0.30724663
243	0xbe68fbff	-0.22752379
244	0x3dfa226a	0.12213595
245	0xbead6acd	-0.33870545
246	0xbe717727	-0.2358061
247	0xbe7e029f	-0.24805687
248	0xbdeed4f8	-0.11661714
249	0xbc0e8457	-0.008698544
250	0x3daff8df	0.0859239
251	0x3d5eda3e	0.05440735
252	0xbcabea50	-0.020985752
253	0xbe83b49a	-0.25723726
254	0xbe8c953d	-0.2745761
255	0xbe51cb27	-0.20487653

linear2.weight f4 [3, 256]
0	0xbd0528e4	-0.0325097
1	0xbcb6ce28	-0.0223151
2	0x3d76a160	0.060212493
3	0xbd490644	-0.04907824
4	0x3c90d638	0.017680272
5	0xbd479ff0	-0.048736513
6	0xbc95be80	-0.018279314
7	0xbd11e06e	-0.035614423
8	0xbd22355f	-0.03960168
9	0xbd0c9a1a	-0.03432665
10	0xbd95196c	-0.072802395
11	0x3e169833	0.14706497
12	0xbd985683	-0.07438376
13	0xbd0357cc	-0.03206615
14	0xbd27fc15	-0.04101189
15	0x3d0151f3	0.031572293
16	0xbce9e0cc	-0.028549574
17	0xbc9a84e7	-0.0188622
18	0xbd2390a2	-0.039932854
19	0xbd76088a	-0.060066737
20	0xbcd4fea8	-0.026000336
21	0x3cf607cd	0.030033017
22	0x3d392b86	0.045207523
23	0x3d13c288	0.03607419
24	0xbd29e3ea	-0.04147712
25	0x3d78b6a0	0.06072104
26	0x3c7d5224	0.015461478
27	0x3d79fdb0	0.06103295
28	0x3c143e38	0.009048037
29	0xbdc5ea88	-0.09663874
30	0x3dce9b56	0.10088222
31	0xbd03d00c	-0.03218083
32	0xbce1da91	-0.02757004
33	0xbd67826f	-0.056520876
34	0xbcddedbc	-0.0270909
35	0xbd58d497	-0.052937116
36	0xbccbcd18	-0.02487807
37	0xbce135a8	-0.027491406
38	0xbc82a5ba	-0.015948165
39	0xbd936ec2	-0.0719886
40	0xbce3ce2b	-0.02780827
41	0xbd9863b2	-0.0744089
42	0xbc93710a	-0.017998237
43	0x3eb210b9	0.34778383
44	0x3e4150ac	0.1887843
45	0xbd511388	-0.051044017
46	0xbd5474b0	-0.051869094
47	0x3de4f2d0	0.11179125
48	0x3c98495a	0.018589664
49	0x3d97b110	0.07406819
50	0xbd4302e0	-0.047610164
51	0x3b2de313	0.0026533052
52	0x3d8c5f01	0.06854058
53	0x3cc51e0a	0.024062175
54	0xbc81682a	-0.01579674
55	0xbc5f34e8	-0.013623454
56	0xbcae8df4	-0.021307923
57	0x3ad82e80	0.001649335
58	0x3d579154	0.05262883
59	0xbd018026	-0.031616352
60	0x3ba8e3b5	0.005154098
61	0xbca8ad84	-0.020590551
62	0xbd351d89	-0.04421762
63	0xbd3892b7	-0.045061793
64	0x3c8f2f95	0.017478744
65	0xbcd730d8	-0.026268408
66	0xbd7ed74e	-0.06221705
67	0xbc9f9b22	-0.019483153
68	0xbd35161d	-0.044210542
69	0x3d6120d8	0.054962963
70	0xbd25dcb1	-0.04049367
71	0xbbb46f01	-0.0055063968
72	0xbc7a3f17	-0.015273831
73	0xbc244213	-0.010025519
74	0xbd0fb552	-0.03508503
75	0x3d0dc900	0.034615517
76	0xbd50c24e	-0.050966553
77	0x3d3a2767	0.045447733
78	0xbd04eeb6	-0.032454215
79	0xbcf1f20c	-0.029534362
80	0xbd3005bb	-0.042974215
81	0xbd54adf2	-0.0519237
82	0xbc9092a0	-0.017648041
83	0x3ebc71fc	0.36805713
84	0xbc860a95	-0.016362468
85	0xbc6fe3c5	-0.014641707
86	0x3d2d9257	0.04237589
87	0x3d0517ce	0.032493405
88	0xbcc67340	-0.024224877
89	0xbd583c64	-0.052791968
90	0x3d4b534f	0.049639996
91	0xbd82d997	-0.06389158
92	0xbd1bae5a	-0.03800807
93	0xbd97d2e7	-0.07413273
94	0xbd4b07af	-0.049567875
95	0xbd2c4790	-0.042060435
96	0x3d4d5b4c	0.050135896
97	0x3cd62d44	0.026144631
98	0x3ca51cfa	0.020155419
99	0x3cb7da8f	0.022443084
100	0xbdd385a0	-0.10328221
101	0xbd2e7a2c	-0.04259698
102	0xbb0458fd	-0.0020194643
103	0xbd46c0dc	-0.04852377
104	0xbd468ba3	-0.04847301
105	0xbd1cb2aa	-0.038256325
106	0x3e2b02dd	0.16700311
107	0x3b974f57	0.0046176123
108	0xbc076430	-0.008263633
109	0x3beec8b0	0.0072871074
110	0x3dac50a1	0.08413816
111	0xbd6cb515	-0.05778988
112	0x3ce2f68b	0.027705451
113	0xbd400780	-0.046882153
114	0xbbf41e85	-0.0074499273
115	0x3d645c6f	0.055752214
116	0xbc6832d0	-0.014172271
117	0xbd74fe78	-0.059812993
118	0xbbad3520	-0.005285874
119	0x3d73bab8	0.05950424
120	0x3cbc616e	0.022995677
121	0xbd83626a	-0.06415255
122	0xbdcc8b7b	-0.09987541
123	0xbcdac75e	-0.026706394
124	0xbc311a10	-0.010809436
125	0x3b11b9ef	0.002223607
126	0x3d13eb60	0.036113143
127	0xbd4414ce	-0.047871403
128	0xbd58f868	-0.052971274
129	0x3bd11d80	0.0063816905
130	0x3d961471	0.07328118
131	0xbc753e8a	-0.014968524
132	0x3cdbc02c	0.026825033
133	0x3c981d1b	0.018568566
134	0x3df66d98	0.12032622
135	0xbd0ea7b0	-0.034827888
136	0xbd59bb03	-0.053156864
137	0xbc5482a0	-0.012970597
138	0x3d82027d	0.06348131
139	0x3e2a1542	0.16609672
140	0xbd3f84cc	-0.046757504
141	0x3e983a46	0.2973196
142	0x3d3cf7ae	0.046134643
143	0xbb4b1540	-0.0030988008
144	0xbc283356	-0.010266146
145	0x3d5df098	0.054184526
146	0xbd05797e	-0.032586567
147	0xbd858297	-0.06519049
148	0xbda9f06d	-0.08297811
149	0xbcbaf8f9	-0.022823798
150	0xbc8e8efc	-0.017402165
151	0x3c3423c8	0.010994859
152	0xbbc03c22	-0.0058665434
153	0xbd5811f4	-0.052751496
154	0xbc9b2720	-0.018939555
155	0xbb072c06	-0.0020625605
156	0x3c9bc878	0.01901649
157	0xbbbbf9b0	-0.005736552
158	0xbd54f2ef	-0.051989492
159	0xbc181312	-0.0092818905
160	0x3dbf907b	0.09353729
161	0x3b41ef60	0.0029592142
162	0xbc33a871	-0.0109654525
163	0xbd3b8b4c	-0.04578714
164	0x3d38f063	0.045151126
165	0x3d05fb3a	0.03271029
166	0xbd13c4cf	-0.036076363
167	0xbac67fc8	-0.0015144283
168	0xbd2f4bec	-0.042797014
169	0xbdba0291	-0.09082521
170	0xbcf1e6d3	-0.02952901
171	0x3bfa1f6f	0.0076331417
172	0xbc8d1a00	-0.017224312
173	0xbd1b0f27	-0.037856247
174	0xbd66f51c	-0.0563861
175	0xbc82e910	-0.015980273
176	0xbca20270	-0.019776553
177	0xbcc73d1f	-0.024321137
178	0xbd8c16a7	-0.06840258
179	0xbce28c48	-0.027654782
180	0x3cc86fff	0.024467466
181	0x3c1bb2c4	0.00950307
182	0xbcbdd8cc	-0.023174666
183	0xbd138042	-0.036010988
184	0x3d90d651	0.070721276
185	0xbd5750f9	-0.052567456
186	0xbdc4aeb3	-0.09603634
187	0xbc9e8dee	-0.019354787
188	0xbcbd04a4	-0.023073502
189	0xbd8bba09	-0.06822593
190	0xbcf917cb	-0.030406853
191	0xbd22c40d	-0.03973775
192	0x3af1c236	0.001844472
193	0x3cf4de58	0.029891178
194	0xbbc46606	-0.0059936075
195	0x3c2b168c	0.010442387
196	0x3c9bae38	0.019003972
197	0x3bcfab99	0.0063375947
198	0xbd387e46	-0.0450423
199	0xbd3807f8	-0.044929475
200	0x3c884e16	0.016638797
201	0x3b42923c	0.0029689213
202	0xbd72d6a4	-0.05928673
203	0xbcbfde71	-0.023421498
204	0xbd26e8e6	-0.040749453
205	0xbd919818	-0.07109088
206	0xbbfe0050	-0.007751502
207	0xbc643528	-0.013928689
208	0xbd7620c3	-0.060089838
209	0x3abce800	0.0014412403
210	0xbd7046b0	-0.058661163
211	0xbc727390	-0.01479806
212	0xbd501099	-0.05079708
213	0xbd0c6604	-0.034276977
214	0xbdbd3b6e	-0.09239851
215	0xbd96981a	-0.0735323
216	0x3d6c9a0b	0.057764094
217	0xbd02a08a	-0.031891383
218	0x3c48b9b5	0.012251307
219	0x3b944cf1	0.0045257737
220	0x3cc186a5	0.023623774
221	0x3d3a1c1f	0.045436975
222	0x3e1f2dc2	0.15544799
223	0xbc83e429	-0.016100006
224	0xbcd06877	-0.025440438
225	0xbc81000c	-0.015747093
226	0x3cc2d7d0	0.023784548
227	0xbc9e2534	-0.01930485
228	0xbd76bf36	-0.060240947
229	0xbd0a10a2	-0.03370727
230	0xbd86344f	-0.06552946
231	0x3c28b810	0.01029779
232	0xbd789a50	-0.06069404
233	0xbe1516f8	-0.14559543
234	0x3d12b3a8	0.035815865
235	0xbc8db916	-0.01730017
236	0xbccc689e	-0.02495223
237	0x3d7bbb5a	0.06145797
238	0x3d522515	0.051304895
239	0xbd89b307	-0.067236
240	0x3cd34322	0.025788847
241	0xbcccc6fb	-0.024997225
242	0x3d344064	0.04400672
243	0x3d39f33e	0.04539799
244	0xbda82929	-0.08210976
245	0x3cc21c83	0.023695236
246	0x3d4e978c	0.050437495
247	0xbb4350c0	-0.002980277
248	0xbd8ef1dd	-0.069797255
249	0xbd96547f	-0.07340335
250	0xbd9ed847	-0.077560954
251	0x3c6f18ef	0.014593347
252	0x3cf05e68	0.029341891
253	0x3cda824d	0.02667346
254	0x3d55bb5e	0.05218064
255	0xbd205b10	-0.039149344

linear2.bias f4 [3]
0	0xbd921783	-0.07133391
1	0x3d7768c5	0.06040265
2	0x3e024d24	0.1272474
