model/model.pth (torch, 16787 bytes, 4 tensors)

linear1.weight f4 [256, 11]
000000 58 76 a8 3d 27 0f 06 bc 80 84 0c 3e c4 5b 0a be
       0.08225697 -0.008182324 0.1372242 -0.13511568
000010 f2 42 0f 3d 67 d4 0b bd e7 4d a0 3e 88 09 3d be
       0.034975953 -0.03413811 0.31309435 -0.18460667
000020 8c f2 7e 3d e1 88 e5 bc 3f 69 78 be a2 41 3f 3e
       0.06224303 -0.02801937 -0.24258898 0.1867738
000030 8c 12 e1 3c a1 6b b9 be cf eb 3e be 4a 8a f0 3b
       0.027474664 -0.36214927 -0.18644641 0.007340704
000040 98 71 9a 3d fe 55 37 3e 67 ae 75 3e 0b 70 d3 bd
       0.075411975 0.17903897 0.2399231 -0.10324105
000050 ea 00 a2 3d 54 5b cb 3e 76 81 87 3f 47 8c 82 3f
       0.079103306 0.39718115 1.0586383 1.0199059
000060 7f 4e 4f 3f 54 e6 3a 3e 70 6b 97 3e 8b 3d 52 3e
       0.8097915 0.18251926 0.29574156 0.2053129
000070 53 69 b3 3e 1e 72 83 3e 3e f2 b1 3e ea 4e 63 3f
       0.35041294 0.25673002 0.3475513 0.8879229
000080 5a 7c d5 be 78 dc 1e 3e 36 70 02 be 21 47 92 be
       -0.41696435 0.1551379 -0.12738118 -0.28569892
000090 9b 3a 9a bb 5d 17 1d be 9e 8f 6e be 7b 14 93 bc
       -0.0047066933 -0.15340944 -0.23296973 -0.017954102
0000a0 35 31 e7 bc 48 eb 80 3e a0 85 3f be 28 c6 98 3d
       -0.028221706 0.25179505 -0.18703318 0.0745967
0000b0 eb 38 59 bc 71 64 1a 3d 33 c8 0f bd 4e 0c bd bd
       -0.013258199 0.037693445 -0.035103034 -0.092308626
0000c0 1d 7e 9e 3d a6 a2 66 3e 8c 55 5f be 66 dd 62 bc
       0.07738898 0.22522983 -0.21809977 -0.013846731
0000d0 54 cf 33 3e 8d 08 5b 3e 59 cd 85 3d 5d 20 09 3f
       0.17559558 0.2138998 0.065333076 0.5356501
0000e0 34 1d c8 3e c3 ca fa 3e 39 8f a0 3d 66 ac e9 3d
       0.3908478 0.4898282 0.078398176 0.114098355
0000f0 f5 b8 52 3e e6 96 b1 3e 2a f7 da 3e 92 eb 58 bd
       0.20578368 0.3468544 0.42766696 -0.052959032
000100 9b 38 e2 3e 5e 81 5a be a6 f7 e7 3e 8e 93 c0 3e
       0.44183812 -0.21338412 0.45306128 0.37612575
000110 09 d1 21 3f 5c 28 0d 3e 86 4f fd bb 1b cc 3a 3e
       0.6320959 0.13784927 -0.007730427 0.18241923
000120 0b e8 2d 3d 30 6e bb 3e 44 57 63 3e f4 ac 2a 3f
       0.04245762 0.36607504 0.22201258 0.66670156
000130 f2 d5 f5 3d 9a 4c 85 bb 43 57 0a 3e dc 30 84 be
       0.120036975 -0.0040679695 0.1350985 -0.25818527
000140 55 2c 5d 3e 39 92 e1 3d 90 24 f9 3d cf 7e 25 be
       0.21598943 0.11014218 0.12165177 -0.16161655
000150 ad dd 98 be 78 6a 2f be 00 44 f4 b9 d4 7c b1 3d
       -0.29856625 -0.17130458 -0.0004658997 0.08666387
000160 28 b0 91 be d0 7a 4a be c6 99 86 bd 9e 9f a6 bd
       -0.2845471 -0.19773412 -0.06572299 -0.08135913
000170 36 9d 0e 3e 7c 55 24 3e 94 63 53 3e b0 71 00 3e
       0.13927159 0.16048235 0.20643455 0.12543368
000180 2e 6d 2e be f2 b3 ed bd 46 6b bc bd ba 26 36 be
       -0.17033836 -0.116065875 -0.09200148 -0.1778821
000190 71 63 fe 3d 6d 37 93 be 7e 0c f1 3d 7c d5 85 3e
       0.12421311 -0.28753224 0.11769961 0.26139438
0001a0 b5 2b 82 3d 27 87 5a 3e 14 e0 07 be 40 b2 81 be
       0.06355993 0.21340619 -0.13269073 -0.25331306
0001b0 c2 7c 8d bd 46 d7 1b 3e ed 48 15 be 43 04 29 be
       -0.06908561 0.15218839 -0.145786 -0.16505532
0001c0 6d 44 32 3d da 97 8b 3d 4b b0 61 bd 94 17 58 be
       0.043522287 0.06816073 -0.055099767 -0.21102744
0001d0 97 b8 aa 3d 60 a4 f5 3d f3 7c 86 3e d3 61 01 3e
       0.08335989 0.11994243 0.26267204 0.12634973
0001e0 39 f9 1b be cc 84 e8 bd f6 d1 6e be 3a f7 dc 3a
       -0.1523179 -0.11353454 -0.23322281 0.0016858347
0001f0 84 be f7 3d 74 3b 13 3e a0 b5 09 bc 7e 2f 79 be
       0.12096885 0.14378148 -0.008405119 -0.24334523
000200 1c 43 cf 3d 1a 35 7c be 98 2b c3 3d 90 94 28 3e
       0.10120222 -0.24629632 0.09529799 0.16462922
000210 0a 79 a5 be 44 a1 a9 bd 1c 07 a2 3d 27 99 19 3e
       -0.32318908 -0.08282712 0.07911512 0.14999829
000220 35 8d 53 3e 31 f8 09 3e 71 46 15 be 82 3b 4a be
       0.20659335 0.13473584 -0.14577653 -0.19749263
000230 48 e5 f2 3d 68 1b ef bd 9e 93 75 be 0b c6 27 3f
       0.11860138 -0.11675149 -0.23982093 0.65536565
000240 0a 77 89 3f be 51 90 3f ec 99 14 3e dc 86 ab bd
       1.0739453 1.1274946 0.14511842 -0.08375332
000250 3a 27 00 3e 91 48 26 bd bb d4 76 3e 3b 20 a2 3d
       0.12514964 -0.04059655 0.24104588 0.07916304
000260 0c f3 87 3f f6 3e 81 be b5 f4 75 3d f8 77 bf bd
       1.0621047 -0.25243348 0.060047824 -0.09349054
000270 6c a7 2d 3e 70 e6 24 bd 65 67 8f be 08 3d 3b be
       0.16958398 -0.040258825 -0.2800857 -0.18285
000280 50 5a 62 be e2 82 ef 3d e6 55 88 be ff 4f 20 be
       -0.22104764 0.11694886 -0.26628035 -0.15655516
000290 1a de 82 3c 1c 04 9e 3e f3 41 c8 3e da 39 6d 3e
       0.015975047 0.3086251 0.39112815 0.231666
0002a0 e4 4e b4 3d 7e 09 85 3e c8 c6 96 be 3c c0 61 3e
       0.0880411 0.25983804 -0.29448533 0.22045988
0002b0 50 05 9f 3b 49 9c 0a be 8f 3d ca 3e 0d ff 96 be
       0.004852928 -0.1353618 0.3950009 -0.29491463
0002c0 2c 93 2b 3e e8 93 b6 be 06 99 09 3e 8b 60 f0 bd
       0.1675536 -0.3565972 0.1343728 -0.11737164
0002d0 a6 6d 8d bc 64 d9 ae bd 2a d6 5a be 52 67 05 bd
       -0.017264199 -0.08537558 -0.2137076 -0.032569237
0002e0 9b ef 1a bd 74 63 28 be af 98 bc 3c 46 c2 e6 bd
       -0.03782616 -0.16444188 0.023022024 -0.112675235
0002f0 ca ae af be e0 50 82 3e c8 e0 1d be 2f c9 58 3e
       -0.3431304 0.25452328 -0.15417778 0.21170495
000300 c6 3b 59 be 8c 2b 0a 3e 45 8a be 3c a4 c8 9b 3d
       -0.21214208 0.13493174 0.023259291 0.076066285
000310 b0 63 fd bd 38 d0 03 3e 57 0b cb 3e ab 9c 8f 3e
       -0.123725295 0.12872398 0.3965709 0.28049216
000320 4d 54 18 bd 2b 83 e4 bd fe 6a a8 bd ef 22 bc 3d
       -0.03718977 -0.11157831 -0.08223532 0.091863506
000330 38 42 d4 3d 34 57 99 3e d2 96 95 3e c5 9c cf 3e
       0.10364193 0.29949343 0.2921663 0.40549293
000340 94 15 84 3c 25 26 5d be 80 55 bc 3b 3d 02 7b be
       0.01612357 -0.21596582 0.005747497 -0.24512573
000350 b0 9b 89 be 1a 8c 98 3e a0 2c 4f 3e b4 f0 cc 3d
       -0.26876593 0.2979439 0.20231867 0.10006848
000360 80 d8 69 bb e6 69 5b be 78 d4 b3 bd 10 d2 68 3e
       -0.0035682023 -0.21427116 -0.087807596 0.22736382
000370 07 ce a9 3b 09 5d a1 be cf 53 f6 bd 05 e9 45 bd
       0.005182031 -0.31516293 -0.12027704 -0.048317928
000380 6b 26 4e ba ab 17 57 3d dd f2 5b bd 77 9d 76 3e
       -0.0007864001 0.052512806 -0.05369841 0.24083506
000390 f3 52 16 3e 03 cb 2c 3e 12 fe 00 be 36 6e 22 3e
       0.1468008 0.16874318 -0.1259692 0.15862355
0003a0 88 a7 21 3e a8 3f 47 be 9a 0f 9d 3c 02 2f 5f 3e
       0.15786564 -0.19457877 0.019172478 0.21795276
0003b0 2e 5d 8c bb 91 9e ff bc d0 fc 95 be 0f 1e 39 3e
       -0.004283569 -0.03120354 -0.29294443 0.18077873
0003c0 91 40 a5 be 28 f4 62 be e2 57 0f be 4f ec 91 be
       -0.32275823 -0.2216345 -0.13998368 -0.28500602
0003d0 51 e2 d3 bd c3 ee 40 3c c5 b6 0c be 4a bc 30 3d
       -0.10345901 0.011775675 -0.13741596 0.043148316
0003e0 40 98 94 be b7 30 fc bd 39 23 0a 3e 7c aa 8e be
       -0.29022408 -0.12313979 0.13489999 -0.27864444
0003f0 82 1e 72 3e 89 3f 54 be 94 28 ad bd 42 19 15 3d
       0.2364445 -0.20727362 -0.08455005 0.03640104

linear1.bias f4 [256]
000000 7c d2 31 3e 73 95 a0 be 5c d9 8d 3f 05 2a 40 3e
       0.1736545 -0.3136402 1.1081958 0.18766029
000010 d3 e7 dd 3d a1 18 a5 3e 28 58 10 3f ae 5f 41 be
       0.108352326 0.32245353 0.56384516 -0.18884155
000020 26 53 5e be 32 d3 36 3e 69 b1 77 be 0c ba ff bd
       -0.21711406 0.17854002 -0.2418877 -0.124866575
000030 08 4f ae 3d 98 a1 4e 3f 8d 82 5d 3d a6 b0 28 be
       0.08511168 0.8071532 0.05407958 -0.16473636
000040 d2 3c 0e 3e 3e 09 99 3a 0e 0e 04 3f ea 14 64 be
       0.13890389 0.0011675728 0.51583946 -0.22273603
000050 bd 8d 91 bd 2a 02 7c be 6e 00 c6 3d 9c 94 db bd
       -0.071071126 -0.246102 0.09668051 -0.10721704
000060 a2 f5 9d be 86 ad ba bc 87 0b 1b 3f 4e 2f d4 bd
       -0.30851465 -0.02278782 0.60564464 -0.10360585
000070 21 85 42 be 70 e4 3b be ab c2 9d be c4 22 c2 3d
       -0.18996097 -0.1834886 -0.30812582 0.09479287
000080 d7 85 2f 3e 5e fd f6 bc 57 e0 88 3d a0 2b b2 bc
       0.171409 -0.030150112 0.066834144 -0.021749318
000090 d0 35 64 be 7e d4 8d 3e 5a b1 b2 3d 1f 6a 9d 3d
       -0.22286153 0.2770118 0.087252334 0.076862566
0000a0 50 15 38 3d 6f 80 3c 3f 85 bc 9c 3e 31 af 32 bb
       0.0449422 0.73633474 0.3061258 -0.0027265067
0000b0 53 48 df bd c7 8d 98 be 1c 3d bc bc 68 0d c0 3d
       -0.109024666 -0.29795668 -0.022978358 0.09377557
0000c0 f8 13 9f 3c d6 82 aa 3e 5e a2 32 3e b0 a8 56 be
       0.019418702 0.33302945 0.1744475 -0.20962787
0000d0 48 0a f3 bd 14 94 56 bd 60 5d 25 bd b4 22 79 bd
       -0.11867195 -0.052387312 -0.040372252 -0.06082411
0000e0 74 a6 2f 3c 11 f4 b3 3d d9 2c 9b 3f a9 43 85 be
       0.010720838 0.08786786 1.2123061 -0.26028183
0000f0 8f af 62 be bb d3 8f be 0f 54 aa 3d 6e 25 1a 3f
       -0.22137283 -0.28091225 0.08316814 0.60213363
000100 bb f3 1f 3e 55 86 57 be 67 e8 5d 3e 36 7c 6f 3d
       0.1562032 -0.21047337 0.21670686 0.058468066
000110 5a 4e 96 be a7 d7 56 be 5c e4 99 bd ad ac 50 3f
       -0.29356652 -0.20980702 -0.07514259 0.8151348
000120 e8 ce 68 3e bc 59 68 3f 90 67 7d bd 35 8d 36 be
       0.22735178 0.90761924 -0.061866343 -0.17827304
000130 9e 0d 01 3e 29 4f 83 bc 6c ae 8d 3f 4d 4e 71 bd
       0.12602851 -0.016028957 1.1068854 -0.058912564
000140 cc 75 a8 be 24 75 3f be 07 e1 3c be 58 82 be bd
       -0.32902372 -0.1869703 -0.18445216 -0.09302205
000150 27 5c 44 3e d0 c2 2e 3e be fa d5 3d fb cb 3e be
       0.19175778 0.17066503 0.10448216 -0.186325
000160 b0 46 a8 bc f1 7e 5f 3e c4 4b ee 3d 59 a5 69 3e
       -0.020541519 0.21825768 0.11635545 0.22816981
000170 f2 94 dc 3c 8d 20 8f be 6a 82 16 3e 8c a2 18 3d
       0.026926491 -0.27954522 0.14698187 0.03726439
000180 00 cc 86 be 77 f2 c7 3d 1d 2b a5 be 68 41 7e 3d
       -0.26327515 0.097630434 -0.32259455 0.062074095
000190 e2 d7 70 3d 33 9a eb 3e 37 89 37 be d2 5f c6 3e
       0.058799632 0.46016082 -0.17923437 0.3874498
0001a0 92 22 1e be 0e 81 fe 3d 9e 18 d6 3d 29 60 f6 bd
       -0.15442875 0.12426959 0.10453914 -0.1203006
0001b0 e6 43 c3 3d 86 53 15 be 54 44 1f be 7b 49 3e bd
       0.09534435 -0.14582643 -0.15553409 -0.046456795
0001c0 14 95 dc bd 33 59 06 3f 33 60 55 3f 8c 27 c0 bc
       -0.10770622 0.5247986 0.83349913 -0.023456357
0001d0 ba e2 bc 3e 62 20 e1 bd 3b bd 33 be ba 89 0a be
       0.3689173 -0.10992505 -0.17552654 -0.13529101
0001e0 e0 21 9f 3f a7 c8 5e 3e bc 8e c4 bc 55 74 03 3f
       1.2432213 0.2175623 -0.023993842 0.51349384
0001f0 a3 66 06 be 0b 1a 50 be 61 3f c6 3c 36 28 4d 3e
       -0.1312509 -0.20322435 0.024200143 0.2003487
000200 cb 37 18 3f d7 0d 21 3f 0a 11 0d be 9e 11 77 be
       0.59460133 0.6291174 -0.13776031 -0.24127814
000210 b0 5c 52 3e c2 51 16 3e 25 31 a7 be c8 ee 88 bd
       0.2054317 0.14679626 -0.32654682 -0.06686169
000220 69 0d 98 3d 7a f8 48 bd 18 19 0d 3e 4e 92 9e be
       0.07424433 -0.04906509 0.13779104 -0.30970997
000230 9d e9 7b be ec 4c a5 be 66 69 2c 3e 68 91 f7 3d
       -0.24600835 -0.3228525 0.16837081 0.12088281
000240 18 88 f1 3d 4d 4e 3c 3f 9e e6 71 3f 52 ec 96 3d
       0.11793536 0.7355698 0.9449252 0.07369293
000250 7d 05 63 be 31 f7 be 3e 16 aa f0 3e bd 7f 14 be
       -0.22170062 0.37297967 0.47004765 -0.14501853
000260 05 28 92 be 05 3b ce 3d 18 a8 18 3f 6e 17 ef bc
       -0.28546157 0.10069851 0.5963149 -0.029185977
000270 37 6c 13 3e 8e 1e 2a be eb 21 5c 3e 2a 48 85 be
       0.1439675 -0.16613218 0.21497314 -0.2603162
000280 8d 34 58 be 65 f6 c0 3d 94 09 51 3e 73 02 77 3f
       -0.21113797 0.09421996 0.2041381 0.9648811
000290 e8 96 16 3d 86 b9 ee bc 31 b1 e9 bd 55 d8 89 be
       0.03676501 -0.029141199 -0.1141075 -0.2692286
0002a0 cb 0e 80 3f 3a e6 69 bb 0d f7 f9 3c 20 70 a2 bc
       1.0004514 -0.0035690204 0.03051331 -0.019828856
0002b0 c0 0d d7 3d 79 2e c6 3e b2 c8 ee bd 40 28 98 be
       0.105006695 0.3870733 -0.11659373 -0.29718208
0002c0 22 7d 22 bc bb 35 ab 3c 6e 15 51 3e 3c 7a 07 3f
       -0.009917529 0.020899644 0.20418331 0.5292089
0002d0 4d c0 21 be fd 34 6c be c8 30 1f 3d e0 ed 93 be
       -0.15796013 -0.23067088 0.03886488 -0.28892422
0002e0 b0 84 e1 3c 9a 99 30 bc f7 4d 18 be f4 ee 5f 3e
       0.02752909 -0.010778809 -0.14873491 0.21868497
0002f0 67 76 47 3e 40 95 1a 3c bd 3a 6f be 17 95 0a 3e
       0.1947876 0.009434998 -0.2336225 0.13533436
000300 5e 63 9b bd 45 3b 41 3e f2 34 e5 3d 23 0c 90 be
       -0.07587312 0.18870266 0.11191739 -0.2813426
000310 ef 0e 81 3d 7b ae 01 3e 03 d8 62 3e 28 b1 54 3e
       0.063016765 0.12664215 0.22152714 0.20770705
000320 b4 af d2 bd 54 da a0 3e da 8e a6 be 78 c0 3d bb
       -0.10287419 0.3141657 -0.32530862 -0.0028953832
000330 4a 72 ef bc 70 80 d7 bc 02 e3 d7 bd cf 51 8c be
       -0.029229302 -0.026306361 -0.10541345 -0.27406165
000340 a5 29 56 3e e8 92 e1 3e 6d 8b 5e be 03 40 95 3e
       0.20914324 0.44057393 -0.21732874 0.291504
000350 18 ec 35 3e 8a 3f 0d bd cd 9b 1e be 96 e3 4c be
       0.17765844 -0.034484424 -0.15489121 -0.20008692
000360 e5 d1 de bd 5f 88 e3 3d bd ab f7 bd bf 61 9a be
       -0.10879878 0.11109995 -0.12093303 -0.301527
000370 e0 ff 23 3e d2 da 11 bd 1e c7 93 be 1f 2f 0f be
       0.16015577 -0.035609074 -0.28862852 -0.13982819
000380 f1 0b 58 3e 10 56 e9 3c 5e 14 a0 be a5 a6 2b bd
       0.21098305 0.02848342 -0.3126554 -0.04190697
000390 4e 60 c4 3e 86 31 58 3e f1 68 a5 3e 1e 2e 85 3c
       0.38354725 0.21112642 0.32306626 0.016257342
0003a0 47 92 6a 3e fd db 3a 3e 95 7c e0 3d ab 6e 70 be
       0.22907363 0.18247981 0.10961262 -0.23479716
0003b0 93 35 70 3f 25 c9 43 bd 35 96 4e be f4 c9 8e 3c
       0.9383175 -0.04779925 -0.20174487 0.017430283
0003c0 e0 f7 d1 3d 01 cb 1a be 79 b7 f9 3e 51 73 6e 3f
       0.102523565 -0.15116502 0.4877279 0.9314471
0003d0 a8 52 82 3e 62 25 29 be 35 de af 3d 28 33 f7 3d
       0.25453687 -0.16518167 0.085873045 0.12070304
0003e0 d4 1f 70 3d ba 78 49 3e cb 68 2e be f6 43 08 3f
       0.058624104 0.1967496 -0.17032163 0.532287
0003f0 d0 0a 05 3f 4a 99 9e 3d 50 cb b8 3c 3e 67 96 bd
       0.51969624 0.07744081 0.022557884 -0.07343911

linear2.weight f4 [3, 256]
000000 2f 09 13 3e 4f e9 66 bd 83 59 91 3e 5b 14 ca bd
       0.14358972 -0.056374844 0.28388605 -0.09867164
000010 b8 c3 af 3d 4c 6f 4d 3e d2 17 32 3e 88 73 10 bd
       0.08582252 0.20061988 0.17391899 -0.03526643
000020 20 98 6d bc da bd 3f bd 2f 04 41 3d 2a ab 6a bd
       -0.014501601 -0.046811916 0.04712313 -0.05729214
000030 7d 00 2b 3d 02 b8 97 3e a7 60 4f 3d 36 6e e3 3d
       0.041748513 0.29632574 0.050629284 0.111050054
000040 9d cd 13 3c 88 67 82 3d 75 8c 14 3e 2e 34 09 3d
       0.00902119 0.06367403 0.14506705 0.033497028
000050 b0 80 f4 3a fe cf 02 3d a0 c1 5d bc ea 61 3d 3d
       0.0018654075 0.031936638 -0.013534933 0.046235956
000060 f2 14 6f bd 9d d4 07 3d 45 53 64 3e a0 94 54 3c
       -0.058369584 0.03316175 0.2229739 0.012974888
000070 54 09 a9 3d a0 54 32 3b 9a e1 0c bb 37 9c cf 3b
       0.08253732 0.0027211085 -0.0021496774 0.006335761
000080 27 6d 83 bd 40 70 bd bd 32 4c 12 3e 00 00 89 bd
       -0.064173035 -0.092499256 0.14286879 -0.06689453
000090 16 b8 2e bd be 26 25 3d ca 3c 6e 3a e1 2f 47 ba
       -0.042656027 0.04032015 0.0009088038 -0.0007598382
0000a0 c8 08 88 bd 59 fa 70 3e 92 f9 39 3e 10 81 21 3e
       -0.066423 0.23533 0.1816161 0.1577189
0000b0 d8 ef 69 bd 20 05 80 bd 88 c8 9b bd 84 77 a5 bd
       -0.0571135 -0.062509775 -0.07606608 -0.080794364
0000c0 b7 af b1 3d aa 7f 71 3e 97 6b 44 bd 86 8d 32 3d
       0.08676093 0.23583856 -0.04795417 0.043592
0000d0 58 d0 bb 3c 25 24 27 be 40 84 fb 3c f9 a5 0b bb
       0.022926494 -0.16322382 0.03070271 -0.0021308644
0000e0 54 eb 90 39 68 b1 06 bd 84 82 a1 3e d9 71 15 be
       0.00027641153 -0.03288403 0.31544888 -0.1459421
0000f0 c0 7c 15 3c 2b cd 8a bd 77 14 8c bc bc eb 6f 3e
       0.009123981 -0.06777414 -0.017099602 0.2342977
000100 1d 96 e2 3d 25 34 e0 3d 02 ce c6 bd 60 77 ae bd
       0.11063788 0.10947446 -0.097072616 -0.08518863
000110 1d 06 db bd 3d 8e c4 b9 b5 e2 11 3d 0b d1 69 3e
       -0.106945254 -0.0003749001 0.035616595 0.2283365
000120 44 86 cd 3c 85 db a2 3e f9 77 0d be 70 26 09 bd
       0.025088437 0.31808105 -0.13815297 -0.033483922
000130 d8 71 56 bc 60 6d 9e 3d f2 0f 95 3e 60 ea b2 bd
       -0.013088666 0.077357054 0.29113728 -0.0873611
000140 fe 46 04 bd 8d 8e cc bc bd 07 f1 bc 5a 3a 70 bd
       -0.032294266 -0.024970317 -0.029422635 -0.0586494
000150 e9 9c bc 3d eb e7 49 3e f6 66 bb bd cf cf c0 bc
       0.09209616 0.19717376 -0.091504976 -0.02353659
000160 60 61 a8 bc db b0 26 bd 85 af 94 bd 46 46 bb 3d
       -0.020554245 -0.040696006 -0.0726004 0.09144263
000170 d2 40 cd bc fe 92 3f bd 86 f7 23 3d f0 92 a7 3d
       -0.025055323 -0.046771042 0.04003098 0.08182323
000180 97 b5 6e bc 6f 3a c9 bc 42 0c 6c 3b f8 ad 9b 3b
       -0.014569662 -0.024563996 0.0036018048 0.0047509633
000190 63 b6 1f bc f4 31 7b 3e 1f ed 07 3e f0 3a 3d 3e
       -0.009748074 0.24530774 0.13274048 0.18479514
0001a0 46 33 09 3d 2d 50 a9 3c 78 4c ab 3d dc df 8d bb
       0.033496164 0.020668114 0.08364195 -0.0043296646
0001b0 87 f1 20 bd 94 24 06 bd 25 fa 27 3c 12 90 72 3d
       -0.03929284 -0.032749727 0.01025251 0.059219427
0001c0 c3 6f 8e bc 53 db 5b 3e 4c 41 77 3e b2 0d 10 bd
       -0.017387277 0.21470384 0.24146003 -0.03516931
0001d0 46 bd 39 3e d4 2c ba 3b b0 48 9d bb 48 62 26 3c
       0.18138608 0.0056816135 -0.004799925 0.010155268
0001e0 5a dd 91 3e 07 6d 21 bd d6 9a 81 3d 9b 7e 24 3e
       0.2848919 -0.039410617 0.06328361 0.16063921
0001f0 36 dd 02 bd 6b 26 f6 3d 61 f1 53 bd f8 28 22 3e
       -0.031949244 0.120190464 -0.05174387 0.15835941
000200 24 22 17 3e 0c c3 3c 3e 66 d2 86 bc 38 c0 28 3c
       0.14759117 0.1843378 -0.016457748 0.010299735
000210 e9 6c ae bd 2f a1 72 bd 1c e3 9b bc b8 9a fc 3c
       -0.08516867 -0.059235748 -0.019029193 0.030835494
000220 cd a9 8c 3e c8 88 cb 3c 89 7c 8f 3c 6d 80 fb bb
       0.27473298 0.024845496 0.017515438 -0.0076752217
000230 22 59 69 3c 03 ff 95 bd a7 5e d5 3b d2 a0 0f bd
       0.014242442 -0.0732403 0.0065115276 -0.03506548
000240 ce 7c a4 bd c8 ac 8c 3e 7b cd 7e 3e 80 e4 ae 3c
       -0.08031617 0.27475572 0.24883072 0.021349192
000250 9c f6 fc 3c d2 b3 95 3e 60 8b 3c 3e d6 10 82 b8
       0.030879311 0.29238755 0.18412542 -6.202019e-05
000260 a1 ad 60 bd 88 e6 84 3c 79 92 74 3e fc 85 45 bd
       -0.054853085 0.016223207 0.23884 -0.04822348
000270 3a 42 86 bd 80 ae e7 ba 6f be bb bd e9 5a f9 ba
       -0.065556005 -0.0017675906 -0.09167182 -0.0019024286
000280 d4 fe 37 3d b1 2f 23 bd 08 c4 05 3c 31 1d 51 3e
       0.044920757 -0.039840404 0.008164413 0.20421292
000290 2c f4 10 bd fa d0 72 bd 72 f2 9a 3d 27 71 a3 bd
       -0.03538911 -0.059281327 0.07565774 -0.079805665
0002a0 98 e6 8f 3e 00 69 c0 3d 9f 1b f1 bc c0 a1 be 3b
       0.28105617 0.09395027 -0.029432116 0.005817622
0002b0 9f 7e 19 3d c4 b0 27 3e 16 aa c8 3c 71 b9 64 3a
       0.03747427 0.16376024 0.024495166 0.00087251427
0002c0 bd 99 9b 3d c5 54 85 bd ff d4 7a bd 91 22 82 3e
       0.075976826 -0.06510309 -0.061238285 0.25416997
0002d0 9b 95 15 be fa 78 05 3e c7 0f 94 bc ec 30 53 bd
       -0.14607851 0.1303443 -0.01807393 -0.051560327
0002e0 fa 59 9a bd 4a 24 20 3e f9 f2 61 bd 02 c6 00 3d
       -0.07536693 0.15638843 -0.055163357 0.031438835
0002f0 8a f0 42 3d 60 73 79 bd 12 2d 86 3c 9d 29 55 bd
       0.047592677 -0.060901046 0.016378913 -0.05204164
000300 b6 1b ff bc ae c0 8d 3d 80 a5 98 3d 90 e0 f2 3c
       -0.031141143 0.06921516 0.074534416 0.029648095
000310 75 d2 c4 3c 89 25 13 3d ab d5 64 3d f5 ad 63 3b
       0.024026135 0.03592447 0.055867832 0.0034741138
000320 80 e1 b1 3b 7e 52 a0 3d 19 ab 56 bb 40 b5 30 bd
       0.005428493 0.07828234 -0.003275579 -0.043141603
000330 06 03 91 3d 15 44 a8 3c 42 44 62 3e 6c 38 a4 3c
       0.07080655 0.020540277 0.22096351 0.020046435
000340 be 7c 54 bd 67 20 4a 3e 6a 35 88 ba 05 aa 6b 3e
       -0.051876776 0.19738923 -0.0010391895 0.23014076
000350 88 1c 35 bd 17 d6 88 bc 61 22 ab bb 14 7b 74 bc
       -0.044216663 -0.016703648 -0.005222604 -0.014921922
000360 b1 35 b7 bc 36 a1 0d 3d 44 ef 6a 3c de 33 db 3c
       -0.02236447 0.03457757 0.014339272 0.02675813
000370 db c5 86 3c 88 11 69 3d f3 87 26 bd 26 3e 1a 3d
       0.016451767 0.056901485 -0.040656995 0.037656926
000380 c8 4a 66 3c f0 ee 0c bd e1 7e bc bd f6 93 88 bd
       0.014055915 -0.034407556 -0.09203888 -0.06668846
000390 10 e5 50 3e f1 02 82 3d 78 6f 9f 3d d8 12 d3 bc
       0.2039988 0.06348217 0.07784933 -0.025765821
0003a0 32 62 16 bd 47 2e 0b bd 5f 87 dd bd 0f 39 89 bd
       -0.03671474 -0.03397968 -0.108168356 -0.06700336
0003b0 2f eb 74 3e f2 1c 99 3d 24 fe c8 3b 10 eb 98 3d
       0.2391784 0.07476224 0.0061338115 0.074667096
0003c0 84 d1 81 3c 85 fc 86 3c 7b 9d ce 3d 89 94 a1 3e
       0.015846975 0.016477833 0.10088631 0.31558636
0003d0 f9 2c 83 bd 74 fa 42 bd 5c 4a 17 3c 73 10 d9 bb
       -0.06405062 -0.047602132 0.009234037 -0.0066242754
0003e0 01 4a 09 bc e7 7c f1 bd ea 90 b8 bb 7b 4b 56 3e
       -0.00837946 -0.11791401 -0.0056325095 0.20927231
0003f0 d8 fd 47 3e 09 00 f5 3d ea 12 29 bd 55 e4 44 3e
       0.19530427 0.11962897 -0.041277803 0.19227727

linear2.bias f4 [3]
000000 d5 47 29 3e 6d 7a 0a 3e 6d d7 1b 3e
       0.16531308 0.13523264 0.15218897
